Code from Finland_2nd_update/pooling_model_v2_weights.pth (torch, 23819 bytes, 14 tensors)

encoder1.0.weight f4 [32, 2]
0	0x3e7c66d3	0.246486
1	0xbea10702	-0.3145066
2	0xbea61a55	-0.32441965
3	0xbf1cf23c	-0.6130712
4	0xbf38e243	-0.7222025
5	0xbe7b2308	-0.24525082
6	0xbe37a3e2	-0.1793361
7	0x3ea486d9	0.3213413
8	0xbf42819a	-0.75979006
9	0x3e976ad8	0.29573703
10	0xbf1fbaf1	-0.62394625
11	0x3e81e684	0.25371182
12	0xbe8a3085	-0.26990142
13	0xbd33e1e4	-0.043916598
14	0x3e92cbad	0.28671017
15	0x3fac8f92	1.3481314
16	0x3f40dd2a	0.7533747
17	0xbf1e16b4	-0.6175339
18	0xbf4e71c7	-0.8064236
19	0xbe08bbe8	-0.1335293
20	0x3ebe5d59	0.37180594
21	0x3f6e9491	0.93195444
22	0xbf425a61	-0.7591916
23	0x3f2e4e24	0.68087983
24	0x3f35a912	0.70961106
25	0xbe8220ef	-0.2541575
26	0xbf167b36	-0.58781755
27	0x3f0b4e60	0.54416466
28	0x3e517d96	0.20458063
29	0xbe86f83a	-0.26361257
30	0x3f0b68e4	0.54456925
31	0x3efd7e9c	0.49510658
32	0xbecc2668	-0.39873052
33	0x3ede2b51	0.43392423
34	0x3ea3bedc	0.31981552
35	0x3c3f4604	0.011674408
36	0xbe63fd4d	-0.22264595
37	0x3d4efe22	0.05053533
38	0x3e197ecc	0.14989775
39	0xbe2cbda0	-0.16869211
40	0xbe0ac9fd	-0.13553615
41	0xbf06e39d	-0.5269106
42	0xbcdf120d	-0.027230287
43	0x3e34bc54	0.17649966
44	0x3f3c2a93	0.73502463
45	0xbf29d057	-0.66333526
46	0xbf1b6ac1	-0.6070977
47	0x3e968ddc	0.29405105
48	0xbd8e59b4	-0.06950703
49	0xbe367535	-0.17818148
50	0xbe8bfb89	-0.27340344
51	0x3e89c424	0.26907456
52	0xbf1fcdb4	-0.62423253
53	0xbedccf72	-0.43127018
54	0x3f260e6c	0.64865756
55	0xbe977ccf	-0.2958741
56	0xbef286be	-0.47368425
57	0xbeb84245	-0.3598806
58	0x3f16ac33	0.58856505
59	0xbf1cdd15	-0.61274844
60	0xbf723de4	-0.9462569
61	0x3ed73dd0	0.42039347
62	0x3e861a88	0.26192117
63	0xbe5624a9	-0.20912422

encoder1.0.bias f4 [32]
0	0x3d86cb2a	0.06581719
1	0xbe9f7f34	-0.31151736
2	0xbed4e4f3	-0.41580924
3	0x3f5651e1	0.8371869
4	0x3ee23e93	0.44188365
5	0x3e258e8a	0.16167656
6	0x3f0f9903	0.5609285
7	0xbe20203d	-0.15637298
8	0x3ceaf9bc	0.028683536
9	0xbf031944	-0.5121043
10	0x3ea5c1a3	0.32374296
11	0xbec0b57f	-0.3763847
12	0xbea373d5	-0.3192431
13	0x3e4dd1d3	0.20099573
14	0xbe995c0d	-0.29953042
15	0x3f430ca8	0.76191187
16	0x3e3100f3	0.17285518
17	0x3f009057	0.50220245
18	0x3f344efb	0.70433015
19	0x3e9e502b	0.30920538
20	0x3f339034	0.7014191
21	0x3e6d7148	0.23187745
22	0x3e9a904a	0.3018821
23	0xbc820a57	-0.015874071
24	0xbd3b0eff	-0.0456686
25	0xbef12d75	-0.47104993
26	0x3f042117	0.5161299
27	0x3d8cae65	0.068692006
28	0xbc961e62	-0.018325035
29	0xbeac5338	-0.3365724
30	0x3f0dde69	0.55417496
31	0x3dddce82	0.10830404

encoder1.2.weight f4 [32, 32]
0	0x3e93aa58	0.288409
1	0x3db6553d	0.08902977
2	0x3d0f0301	0.034914974
3	0x3e160863	0.14651637
4	0xbda3d30a	-0.07999237
5	0x3d7a28dd	0.061074127
6	0x3d533eb8	0.051573485
7	0x3e48d483	0.19612317
8	0x3d26e47c	0.040745243
9	0x3e48255d	0.19545503
10	0x3ebd0289	0.36915997
11	0xbbb0e05f	-0.005397841
12	0x3d3283be	0.04358267
13	0xbc7cd84b	-0.015432428
14	0x3e96db46	0.29464167
15	0x3ed36628	0.41288877
16	0x3dcbea15	0.09956757
17	0x3ed8a94e	0.4231667
18	0x3d049188	0.032365352
19	0x3e0648a8	0.13113654
20	0x3e68813c	0.22705549
21	0x3dc46a61	0.09590603
22	0x3dc36783	0.09541228
23	0x3e3cad2a	0.18425432
24	0x3d54372a	0.05181042
25	0x3e6daf18	0.23211324
26	0x3e901d68	0.28147435
27	0x3e9529e2	0.29133517
28	0x3e7434f5	0.23848327
29	0x3e7353e1	0.23762466
30	0x3d60daa5	0.054896016
31	0x3def3859	0.11680669
32	0xbd5faf32	-0.05461044
33	0x3dbdf46c	0.092751354
34	0x3dcf930c	0.10135469
35	0x3d67ad56	0.05656179
36	0x3e800956	0.25007123
37	0x3e56205f	0.20910786
38	0x3d05d14c	0.032670304
39	0x3ef17ffc	0.47167957
40	0xbde3bce6	-0.11120014
41	0xbd95d6fb	-0.07316395
42	0x3e9ce809	0.3064578
43	0xbe62885d	-0.22122331
44	0x3ded0fbc	0.11575267
45	0xbe00a5bc	-0.12563223
46	0x3dd440ee	0.10363947
47	0x3ec9a169	0.3938096
48	0x3e40acb9	0.18815888
49	0x3e95b420	0.29238987
50	0x3e63f028	0.22259581
51	0x3e999604	0.29997265
52	0x3dedc116	0.11609094
53	0x3caf5bde	0.02140611
54	0x3e31129d	0.17292257
55	0x3e16d112	0.14728191
56	0x3dcf1c51	0.10112823
57	0x3dde23dd	0.10846684
58	0x3e843e9f	0.25829026
59	0x3e4d9364	0.20075756
60	0x3e44fe1e	0.19237563
61	0x3dfaa94b	0.12239321
62	0x3e167421	0.14692737
63	0xbba922f0	-0.0051616356
64	0x3e002375	0.12513526
65	0x3dcfe815	0.10151688
66	0x3df90d63	0.121607564
67	0x3c4eaa47	0.0126138395
68	0x3c8fc909	0.017551916
69	0xbd4c4b8e	-0.049876742
70	0xbda96672	-0.08271493
71	0xbd02e651	-0.031957928
72	0x3e78738e	0.2426283
73	0x3d31a4bc	0.043369994
74	0xbd6fdebd	-0.05856203
75	0x3ebeadba	0.37241918
76	0xbd2581d4	-0.040407017
77	0x3e9e36b3	0.30901107
78	0x3e888127	0.26661035
79	0x3e3172ae	0.17328903
80	0x3e134c26	0.14384517
81	0x3e2d90e2	0.169498
82	0x3e2f0cfe	0.170948
83	0x3e0c65b8	0.13710678
84	0x3cd031b8	0.025414333
85	0x3e038fee	0.12847874
86	0x3e4d93d8	0.20075929
87	0x3e8cb78b	0.27483782
88	0x3df2c9ca	0.118548945
89	0x3cf565c4	0.029955752
90	0xbd87ed4a	-0.06637056
91	0xbd9c8b04	-0.076437026
92	0xbdcbc288	-0.09949213
93	0x3c7d2069	0.015449622
94	0xbcddf4e2	-0.027094308
95	0x3dd3ec67	0.103478245
96	0xbdf5248e	-0.11969863
97	0x3e3b866d	0.18312998
98	0x3e34fabf	0.17673777
99	0xbe5f69fd	-0.21817775
100	0x3e176cdf	0.14787625
101	0x3dc11502	0.09427835
102	0xbd99532d	-0.07486568
103	0x3ed3aa41	0.4134083
104	0xbe84d689	-0.25944927
105	0x3e6fdff8	0.23425281
106	0x3dc5bcca	0.09655149
107	0xbe932e8c	-0.2874645
108	0x3e202121	0.15637638
109	0xbe2a67d5	-0.16641171
110	0x3d937828	0.07200652
111	0x3e517dee	0.20458195
112	0xbdd0987a	-0.101853326
113	0x3de6bcd9	0.112664886
114	0x3df0b573	0.11753359
115	0xbddede2e	-0.10882221
116	0x3e52fccc	0.20604247
117	0xbd085e67	-0.033293154
118	0xbd8527cd	-0.06501732
119	0x3e1e67cd	0.15469284
120	0xbdb217e2	-0.086959615
121	0xbe4226c5	-0.18960102
122	0x3d80a674	0.062817484
123	0x3cb4c871	0.022068234
124	0x3dd23259	0.10263509
125	0xbe3076c7	-0.1723281
126	0xbdcf6fa7	-0.10128718
127	0xbd96adbd	-0.07357357
128	0xbd3e5ecc	-0.046477124
129	0x3d58021a	0.05273638
130	0xbd9c2343	-0.07623913
131	0x3ea48781	0.3213463
132	0x3d7c1116	0.061539732
133	0x3e01565b	0.12630598
134	0xbd2af76e	-0.041739874
135	0xbd3f93ea	-0.04677192
136	0x3e718781	0.23586847
137	0x3e23fd65	0.16014631
138	0xbdc1e2fd	-0.09467123
139	0x3edd0c11	0.43173268
140	0xbda8fce0	-0.08251357
141	0x3e30ccdd	0.17265649
142	0x3e9d5853	0.3073145
143	0x3db4d8f9	0.08830447
144	0x3ecd8d0e	0.4014668
145	0x3e4a7bff	0.19773863
146	0x3e8a4fa0	0.27013874
147	0x3e0ea43a	0.13929835
148	0x3c3f9647	0.011693544
149	0x3e20c1a1	0.15698864
150	0x3e7ea3b3	0.24867134
151	0x3dcfaa2f	0.10139882
152	0xbda4bb7a	-0.08043571
153	0x3d8f1e32	0.06988181
154	0xbdf9e86c	-0.12202534
155	0xbd18ddea	-0.03732101
156	0x3d71c6bf	0.05902743
157	0x3e9b300f	0.30310103
158	0x3db69e93	0.089169644
159	0x3cc6cbbc	0.02426707
160	0xbd4abdae	-0.0494973
161	0x3cd86e55	0.026419798
162	0x3e47dd68	0.19518054
163	0xbb6a4d14	-0.0035751509
164	0x3e479cce	0.1949341
165	0x3ec2cde3	0.38047704
166	0xbaae4659	-0.0013296112
167	0x3b0c8ba0	0.0021445528
168	0xbd2ecd48	-0.04267624
169	0xbd02935a	-0.031878807
170	0xbe9160e2	-0.28394228
171	0x3effc72f	0.49956653
172	0x3eeaca59	0.45857504
173	0x3ef7f439	0.48428515
174	0x3d81c8ca	0.063371256
175	0x3d08673f	0.03330159
176	0x3e3d6742	0.18496421
177	0xbe0580b9	-0.13037385
178	0xbd1479a0	-0.036248803
179	0x3d83517f	0.064120285
180	0x3e097f04	0.13427359
181	0x3e682eb6	0.22674069
182	0x3d6cd1b1	0.057817165
183	0x3e7e94d8	0.24861467
184	0x3d9b0225	0.075687684
185	0x3e09d0d4	0.13458568
186	0x3d7ed11c	0.06221114
187	0x3da08a3a	0.078388646
188	0x3d48005c	0.048828468
189	0x3d51c482	0.051212795
190	0x3e6005b0	0.2187717
191	0x3e3b7713	0.18307142
192	0x3d73167f	0.059347626
193	0xbdc33991	-0.09532464
194	0x3dbb2c3d	0.09139297
195	0xbdc6d032	-0.09707679
196	0x3e4b2d86	0.19841585
197	0x3e5b62f5	0.21424468
198	0x3e771e6e	0.24132702
199	0x3dac6d07	0.08419233
200	0x3e05750e	0.13032934
201	0xbd75206a	-0.059845366
202	0xbe038c8f	-0.12846588
203	0xbdf4edda	-0.11959429
204	0x3ee8f2df	0.45497796
205	0xbd15267a	-0.036413647
206	0xbdf13a62	-0.11778714
207	0xbd5f5c7e	-0.054531567
208	0xbda319a5	-0.07963876
209	0xbddc56b6	-0.10758726
210	0xbc6bb322	-0.01438597
211	0x3cba4ef5	0.022742728
212	0x3e61519e	0.2200379
213	0x3d4cf76a	0.05004064
214	0xbe320fca	-0.17388836
215	0x3e4cf22b	0.20014255
216	0x3e005a8c	0.12534541
217	0x3dd986b6	0.10621397
218	0x3e891e03	0.2678071
219	0x3e01cfbd	0.12676902
220	0x3cf5f574	0.030024268
221	0x3c44ae39	0.012004429
222	0x3e7e49b5	0.24832805
223	0xbccf94a8	-0.02533944
224	0x3c85ffb6	0.016357284
225	0x3e197e04	0.14989477
226	0x3e401313	0.18757276
227	0xbcff40ff	-0.031158922
228	0x3dcc01a1	0.09961248
229	0x3e6f5eda	0.23376027
230	0x3e683a6d	0.22678538
231	0x3ee0471c	0.43804252
232	0x3dca1112	0.09866537
233	0x3d05bb24	0.032649174
234	0x3dca6311	0.09882177
235	0xbe7f6eb1	-0.24944569
236	0x3ecabaad	0.39595547
237	0xbe217a0e	-0.15769216
238	0xbb4a065b	-0.0030826542
239	0x3d261be0	0.040553927
240	0xbdcb5f18	-0.09930247
241	0xbdc96174	-0.09833041
242	0x3e3c3b00	0.18381882
243	0x3e31ab31	0.1735046
244	0x3e47de1f	0.19518326
245	0xbdcf5156	-0.101229355
246	0xbda64295	-0.08118168
247	0x3e5aa1ea	0.21350828
248	0xbc03f4c8	-0.008053966
249	0xbd063ebb	-0.03277467
250	0x3e2af596	0.16695246
251	0x3d44cd85	0.04804756
252	0xba0ac8f7	-0.00052942283
253	0xbe2b53c8	-0.16731179
254	0x3e98ca0a	0.29841644
255	0xbd7ff6da	-0.062491275

encoder1.2.bias f4 [32]
0	0x3dfff898	0.12498587
1	0x3e83c9ce	0.25739902
2	0x3e2259c7	0.1585456
3	0xbd11ebc5	-0.035625238
4	0x3beaecf5	0.0071693608
5	0x3e39fddf	0.1816325
6	0x3e043a5e	0.1291289
7	0x3e609238	0.21930778
8	0x3c2a38e5	0.010389541
9	0xbdedb881	-0.11607457
10	0x3e24265c	0.16030258
11	0x3df6b09d	0.12045405
12	0x3e8f6c41	0.2801228
13	0x3dcb5d31	0.09929884
14	0x3e438692	0.19094303
15	0x3e980af6	0.29695863
16	0x3e3747fa	0.1789855
17	0x3e965305	0.29360214
18	0x3d9ceb6e	0.07662092
19	0x3df32d44	0.11873868
20	0x3e410cbe	0.18852517
21	0x3cf12808	0.029438034
22	0x3e2a6e99	0.16643752
23	0xbd170848	-0.036873132
24	0x3dcd7ffa	0.10034175
25	0x3e0b8c15	0.13627656
26	0x3c3b59cf	0.011434986
27	0xbd0d41ba	-0.03448651
28	0x3df75c92	0.12078203
29	0x3d93f6fc	0.07224843
30	0x3e592c19	0.21208228
31	0x3dc9347c	0.09824464

encoder1.4.weight f4 [32, 32]
0	0xbe4bfe29	-0.19921173
1	0x3d13aaa3	0.036051404
2	0xbdc8ac2b	-0.097984634
3	0x3df81c74	0.12114802
4	0xbe7334e3	-0.23750643
5	0xbdae902b	-0.085235916
6	0x3d6bae36	0.057539187
7	0x3dd709d8	0.104999244
8	0xbc3d9ca4	-0.011572991
9	0x3dbb8d08	0.09157759
10	0xbe38a79d	-0.1803269
11	0x3dce2677	0.1006593
12	0xbe7c83e1	-0.24659683
13	0xbd677db3	-0.05651636
14	0xbe7b3046	-0.24530134
15	0xbe707025	-0.2348028
16	0xbe5c06e5	-0.21487005
17	0xbb3b5a19	-0.0028587638
18	0x3df1f531	0.11814345
19	0x3c286fe4	0.010280583
20	0xbe03090c	-0.1279642
21	0xbe42ca4c	-0.19022483
22	0xbe0111c6	-0.12604436
23	0xbea42bc8	-0.32064652
24	0xbe8f1728	-0.27947354
25	0xbe6c68e4	-0.23086888
26	0xbe8aa1c8	-0.27076554
27	0xbe58d24d	-0.21173973
28	0xbe64b6d2	-0.22335365
29	0x3d47eea5	0.048811574
30	0x3d33cad1	0.043894593
31	0xbe6116af	-0.2198131
32	0xbcbb6c2f	-0.022878734
33	0x3d1b75d4	0.037954167
34	0xbe15e6e2	-0.14638856
35	0xbe638727	-0.22219525
36	0xbe76389f	-0.24045037
37	0xbe188dfe	-0.14897916
38	0xbddc4fce	-0.10757409
39	0x3c800689	0.015628116
40	0xbd5eb2e2	-0.054369815
41	0xbe329bd1	-0.17442252
42	0xbe8cf359	-0.2752941
43	0xbe2c54d6	-0.16829237
44	0xbdfed813	-0.12443557
45	0xbe30c303	-0.17261891
46	0xbe00b2ee	-0.12568256
47	0xbea1bad6	-0.31587857
48	0x3d804ed5	0.06265036
49	0xbdfcee49	-0.12350137
50	0xbe7c8114	-0.24658614
51	0xbe7e549e	-0.24836966
52	0xbe6a6541	-0.22890188
53	0x3c2d7d20	0.010588914
54	0xbe436058	-0.19079721
55	0xbb3b8f7d	-0.0028619461
56	0x3cd7b607	0.026331915
57	0xbeabe121	-0.33570197
58	0xbdbeaad6	-0.09309928
59	0xbe474b02	-0.19462207
60	0xbe6f04a8	-0.2334162
61	0xbbbb7d4d	-0.005721724
62	0xbdc0c987	-0.09413438
63	0xbe1a2880	-0.15054512
64	0x3e24506d	0.16046305
65	0x3e8541eb	0.26026854
66	0x3d59af55	0.053145725
67	0x3e00db3c	0.12583631
68	0xbd894f7b	-0.06704613
69	0xbda87e42	-0.08227207
70	0xbd28cb52	-0.041209526
71	0x3df1da13	0.118091725
72	0x3ea8ea53	0.32991275
73	0x3d0dd414	0.03462608
74	0xbdd4a9b7	-0.10383933
75	0x3ecc1eff	0.39867398
76	0x3e2a34a3	0.16621642
77	0xbcdfe83f	-0.027332423
78	0x3e0eda5e	0.13950488
79	0x3e838dba	0.25694066
80	0x3e8bf044	0.27331746
81	0x3e3e3489	0.18574728
82	0x3e7e2649	0.24819292
83	0xbca2f3de	-0.019891676
84	0x3e98481e	0.2974252
85	0xbd92c765	-0.07166938
86	0x3e3e4288	0.18580067
87	0xbe12b0ce	-0.14325258
88	0x3e60c3c9	0.21949686
89	0x3cd61f3b	0.026137939
90	0x3e467918	0.19382131
91	0x3c470861	0.012147994
92	0xbd33bb5c	-0.04387985
93	0x3da6da7b	0.081471406
94	0x3eaa2770	0.33233213
95	0x3d9df518	0.077127635
96	0xbdbe2d89	-0.09286029
97	0xbe8c6c2e	-0.27426285
98	0x3d2f8e08	0.04286006
99	0xbe00aead	-0.12566634
100	0xbd4f7b1b	-0.050654512
101	0xbcfbf6bb	-0.030757299
102	0xbb9dfdd2	-0.0048215175
103	0xbe5aad2c	-0.21355122
104	0xbea027d5	-0.3128039
105	0xbe3921dc	-0.18079323
106	0xbb59d42f	-0.0033238044
107	0xbebba361	-0.36648086
108	0xbe87bfcf	-0.26513526
109	0xbd7c707a	-0.061630704
110	0xbcae3480	-0.021265268
111	0xbd936e94	-0.071988255
112	0xbdb0a12b	-0.0862449
113	0xbd26cbbb	-0.040721636
114	0xbe97af60	-0.29625988
115	0xbb0eb1ab	-0.0021773379
116	0xbddb30d6	-0.10702674
117	0xbe798316	-0.24366412
118	0xbd9f2f28	-0.07772666
119	0xbd8d22ef	-0.06891429
120	0x3da01257	0.07815998
121	0x3dcd1634	0.100140005
122	0x3d481b26	0.048854016
123	0x3e163911	0.14670207
124	0xbd8e2c09	-0.06941993
125	0xbe054238	-0.13013542
126	0xbdd4046e	-0.103524074
127	0xbe156f7c	-0.14593309
128	0x3b93d7d7	0.004511814
129	0xbe534f24	-0.20635659
130	0xbe08e171	-0.13367249
131	0xbe7050f5	-0.23468383
132	0xbe25e85a	-0.16201916
133	0xbcf66ccd	-0.030081177
134	0xbe632f59	-0.2218603
135	0xbe859753	-0.26092014
136	0xbe15511a	-0.14581719
137	0xbe091cbb	-0.13389866
138	0xbd82e7eb	-0.06391891
139	0xbe67b573	-0.22627811
140	0xbe3ad4d1	-0.18245246
141	0xbde11932	-0.10991134
142	0xbe53f3b8	-0.2069844
143	0xbe71a1ef	-0.23596929
144	0xbe8a6c0a	-0.27035552
145	0xbe2f3c35	-0.17112811
146	0xbd8cfdec	-0.06884369
147	0xbda31783	-0.07963469
148	0x3999cc2e	0.0002933456
149	0xbe858c1d	-0.2608346
150	0xbb813d31	-0.003944062
151	0x3be9deca	0.007137154
152	0xbe26bc3f	-0.16282748
153	0x3d2b6925	0.04184832
154	0x3d4660d4	0.048432186
155	0x3de914b0	0.11380899
156	0xbd77d9ef	-0.060510572
157	0xbded61e4	-0.11590937
158	0xbe4248eb	-0.18973128
159	0xbe770eb4	-0.24126703
160	0x3e9e73f8	0.30947852
161	0x3e5e8ce4	0.21733433
162	0x3d4f1c8a	0.050564326
163	0x3ecec1b8	0.4038217
164	0x3d82ac01	0.063804634
165	0x3e5c8f3b	0.21539013
166	0x3dd119f9	0.10210032
167	0x3e81c231	0.2534347
168	0x3e4f97a3	0.20272689
169	0x3e9a15ad	0.30094662
170	0xbcb1ff36	-0.02172814
171	0x3e5069c7	0.20352851
172	0x3e1101e6	0.1416088
173	0xbcd7ab57	-0.026326818
174	0x3e0bb2d2	0.13642433
175	0x3dbcef8d	0.09225378
176	0x3ea145ad	0.3149847
177	0x3eb8e9fc	0.36116016
178	0x3e8631c0	0.2620983
179	0x3e6bc33c	0.23023695
180	0x3e824c96	0.25449055
181	0x3e9043ed	0.28176823
182	0x3c73521e	0.014851121
183	0x3c3959c9	0.01131291
184	0x3e6bd32a	0.23029771
185	0x3e69b7c2	0.22824004
186	0x3dc796f8	0.09745592
187	0x3e45602d	0.1927497
188	0xbcc6ec27	-0.024282528
189	0x3e03af85	0.12859924
190	0x3e8ce517	0.27518532
191	0x3d9ca83d	0.076492764
192	0xbdd23442	-0.10263874
193	0xbe480a00	-0.19535065
194	0xbe47f229	-0.1952597
195	0xbe42c46f	-0.19020246
196	0x3df22215	0.11822907
197	0xbe8714ef	-0.2638316
198	0x3d22601f	0.03964245
199	0xbe82b2fe	-0.25527185
200	0xbe4896f2	-0.19588831
201	0xbe2707d0	-0.16311574
202	0xbde610e7	-0.112336926
203	0xbe02b778	-0.127653
204	0xbe2e74a6	-0.17036685
205	0x3dd8a43c	0.105782
206	0xbdb3f943	-0.08787777
207	0xbd47d3ef	-0.0487861
208	0xbe375f6a	-0.17907491
209	0xbdf042a0	-0.11731458
210	0xbd99ae90	-0.07503998
211	0x3cb89ae5	0.022534797
212	0x3d99cb73	0.07509508
213	0xbe4ca719	-0.19985618
214	0xbd71ff42	-0.059081323
215	0xbe0ccf97	-0.13751064
216	0xbe243411	-0.16035487
217	0xbe190ace	-0.14945528
218	0xbd3b9535	-0.04579659
219	0x3da106ed	0.07862649
220	0x3c0907d4	0.008363683
221	0x3c139203	0.00900698
222	0xbd86e069	-0.065857716
223	0x3c1f08a2	0.009706648
224	0xbe6e52b4	-0.23273736
225	0xbddd0a16	-0.10792939
226	0xbda45cb3	-0.080254935
227	0x3e21b92f	0.15793298
228	0xbe521fcc	-0.20519942
229	0xbdad4da7	-0.08462077
230	0xbd4ed26e	-0.05049365
231	0x3e059899	0.13046493
232	0xbe29b8e1	-0.16574432
233	0x3db0e541	0.08637477
234	0xbe87659a	-0.26444703
235	0x3dd50c3f	0.104027264
236	0x3da4bdd7	0.080440216
237	0xbe10ee11	-0.14153315
238	0xbe7b0808	-0.24514782
239	0xbdd61aca	-0.10454328
240	0xbd0a1545	-0.03371169
241	0x3b826a9e	0.003979995
242	0x3cd4287a	0.025898207
243	0xbe3666a0	-0.17812586
244	0x3d26fac3	0.04076649
245	0x3cd2b448	0.02572073
246	0xbe71cea7	-0.23613988
247	0xbe9b27e1	-0.30303863
248	0xbe6c156a	-0.23055044
249	0xbe04616d	-0.1292779
250	0xbda4b61a	-0.080425456
251	0xbdd8e563	-0.10590627
252	0xbe6cea69	-0.23136295
253	0xbe75d327	-0.2400633
254	0xbd6f4a44	-0.058420435
255	0xbe704cb2	-0.23466757

encoder1.4.bias f4 [32]
0	0xbe03aae0	-0.12858152
1	0xbe6fb32a	-0.2340819
2	0x3d4e3a78	0.05034873
3	0xbe95403d	-0.29150572
4	0xbda30766	-0.079603955
5	0x3e64f5df	0.22359417
6	0xbdd887d8	-0.10572785
7	0x3da0e46a	0.078560665
8	0x3d82c802	0.06385805
9	0xbd0ed60d	-0.034872103
10	0x3e643cf4	0.22288877
11	0xbdbcea51	-0.0922438
12	0x3e05907d	0.13043399
13	0xbe0c4a0e	-0.13700125
14	0x3e435ed5	0.19079144
15	0xbd2009f1	-0.03907198
16	0x3da4d72c	0.08048853
17	0xbd79db42	-0.061000116
18	0x3e306257	0.17225014
19	0xbc504140	-0.012710869
20	0xbe47bd5e	-0.19505832
21	0xbe1df11a	-0.15424004
22	0xbdb77897	-0.089585476
23	0x3e5a7284	0.21332747
24	0x3be59133	0.0070058345
25	0x3dc69407	0.09696203
26	0xbd7b983d	-0.061424483
27	0x3e04d038	0.12970054
28	0x3d9acdec	0.07558808
29	0xbe225950	-0.15854383
30	0xbd3f17fa	-0.046653725
31	0xbe192cd6	-0.1495851

encoder2.0.weight f4 [32, 41]
0	0xbdc61e48	-0.096737444
1	0xbe5321ca	-0.20618358
2	0x3e5c234a	0.21497837
3	0xba27981b	-0.000639321
4	0xbe5a3896	-0.21310648
5	0x3e8535b1	0.26017526
6	0xbe84be09	-0.25926235
7	0xbe74b16d	-0.23895808
8	0xbe61e5a9	-0.22060265
9	0xbd749397	-0.059711065
10	0x3db447b5	0.088027395
11	0xbe13fa01	-0.14450838
12	0xbe2efc59	-0.1708845
13	0xbe784bf1	-0.2424772
14	0x3e2091a9	0.15680565
15	0xbca2445b	-0.019807985
16	0x3e947c6e	0.29001182
17	0x3cb9346d	0.022608006
18	0x3e47a202	0.19495395
19	0x3ddd623c	0.10809752
20	0xbe6dd481	-0.23225595
21	0xbe90c69d	-0.2827653
22	0x3e9b61de	0.30348104
23	0xbe7e4141	-0.2482958
24	0xbe8909bf	-0.26765248
25	0xbe20d4b3	-0.15706138
26	0xbe8194eb	-0.25308928
27	0x3ba406f3	0.005005711
28	0x3decaae8	0.11556035
29	0xbe6fbc2b	-0.23411624
30	0x3e459c57	0.1929792
31	0xbc4005e8	-0.011720158
32	0xbe387b4f	-0.18015788
33	0xbde0c5a5	-0.10975198
34	0xbeaa8528	-0.33304715
35	0x3ddf4070	0.10900962
36	0x3ed34e58	0.4127071
37	0xbe045c1b	-0.1292576
38	0xbe3f7edd	-0.18700738
39	0xbcda2639	-0.026629554
40	0x3dbbd084	0.091706306
41	0x3c98ad91	0.01863745
42	0x3c35324e	0.011059357
43	0x3d94decb	0.07269057
44	0xbdd5d449	-0.10440881
45	0x3daaf2fa	0.08347125
46	0x3d9680fc	0.073488206
47	0xbe1d04c8	-0.15333855
48	0x3b809d13	0.0039249747
49	0xbdbdee26	-0.09273939
50	0xbe22581b	-0.15853922
51	0x3d48d2be	0.049029104
52	0xbde53ffe	-0.11193846
53	0xbe338519	-0.17531241
54	0xbd889385	-0.06668762
55	0x3e050a05	0.12992103
56	0xbcb45966	-0.022015285
57	0x3d42f44a	0.047596253
58	0xbe3e155b	-0.18562834
59	0xbd175f51	-0.036956135
60	0xbca5204b	-0.020157
61	0xbe038498	-0.12843549
62	0x3dabcf12	0.08389105
63	0x3dff65d9	0.12470598
64	0x3d7ac444	0.06122233
65	0x3d59a137	0.053132262
66	0xbd85c156	-0.065310165
67	0xbc657293	-0.014004367
68	0xbc5eb216	-0.013592264
69	0x3cac1a73	0.021008706
70	0xbe195304	-0.14973074
71	0x3de9ce15	0.1141626
72	0x3d82077b	0.06349083
73	0xbd574a74	-0.05256124
74	0xbdc93eaf	-0.09826409
75	0xbe20c663	-0.15700679
76	0xbf0c6bb1	-0.54851824
77	0x3e1dc31e	0.15406463
78	0x3ed4512d	0.41468182
79	0x3e090370	0.13380218
80	0x3d400df4	0.046888307
81	0xbbe30783	-0.0069283857
82	0xbdd327c6	-0.103103206
83	0x3d2ecc61	0.04267538
84	0x3dd28974	0.10280123
85	0xbe245fae	-0.16052124
86	0xbdccd88e	-0.10002242
87	0x3d6ffe7f	0.058592316
88	0xbe383811	-0.17990138
89	0x3d24c66f	0.040228304
90	0xbe30f434	-0.17280656
91	0xbe164a59	-0.14676799
92	0x3b551a90	0.0032517053
93	0xbe20b61e	-0.15694472
94	0x3d399bb9	0.045314524
95	0xbca1835b	-0.019715955
96	0x3e35293b	0.1769151
97	0xbe33aa0e	-0.1754534
98	0x3cddb354	0.02706305
99	0xbdd97890	-0.106186986
100	0x3dc4786f	0.095932834
101	0x3dc68fdf	0.0969541
102	0xbe5cf6a4	-0.21578461
103	0x3d359e4e	0.044340424
104	0x3e035db2	0.1282871
105	0xbcf1d68c	-0.02952125
106	0xbcbd1343	-0.023080474
107	0xbda85931	-0.08220137
108	0xbd70c695	-0.058783133
109	0xbe007ef0	-0.12548423
110	0xbda9da83	-0.08293631
111	0x3c1454f8	0.009053461
112	0x3dc37428	0.095436394
113	0xbbe04225	-0.0068438225
114	0x3e080516	0.1328319
115	0xbe04702b	-0.12933414
116	0x3eb86650	0.36015558
117	0x3f08c4e0	0.5342541
118	0xbe9d66cd	-0.30742493
119	0xbeec3f7b	-0.46142182
120	0x3e0c89f6	0.13724503
121	0xbb99e040	-0.004695922
122	0x3dfbd649	0.12296731
123	0xbd40e913	-0.047097277
124	0x3da4056b	0.08008846
125	0xbd277ef9	-0.040892575
126	0x3dc1e3cc	0.09467277
127	0x3e01692f	0.1263778
128	0x3d0a17a4	0.03371395
129	0x3da83509	0.08213241
130	0xbe11e3db	-0.14247076
131	0xbe074c16	-0.13212618
132	0xbe0155f6	-0.12630448
133	0x3e22fdac	0.1591708
134	0xbe35ebd0	-0.17765737
135	0xbda71db4	-0.08159962
136	0xbdedbb95	-0.11608044
137	0x3e7b9bab	0.24571101
138	0x3cd951af	0.026528208
139	0xbdfd16ff	-0.12357902
140	0x3d2145f1	0.039373342
141	0xbe5da1f8	-0.21643817
142	0x3e3bf363	0.18354563
143	0xbe7c518d	-0.24640484
144	0x3d0a87e2	0.033820994
145	0xbd9c8704	-0.0764294
146	0x3c8dc2d6	0.01730482
147	0x3d51e8d6	0.05124744
148	0xbe477897	-0.19479595
149	0xbda250bf	-0.07925557
150	0x3e1557d0	0.14584279
151	0x3e227921	0.1586652
152	0x3e16185f	0.14657734
153	0xbc821ba3	-0.015882319
154	0x3e08dab3	0.13364677
155	0x3c95d269	0.018288808
156	0xbdb77dae	-0.089595184
157	0x3f0b1151	0.543233
158	0xbf13e789	-0.5777517
159	0xbe8056ad	-0.25066128
160	0x3ed95d48	0.4245398
161	0x3e027146	0.12738523
162	0xbda934fb	-0.08262058
163	0xbdd3d544	-0.103434116
164	0xbd82c4fe	-0.063852295
165	0xbe34cda0	-0.17656565
166	0x3e50e633	0.20400314
167	0xbd063ab5	-0.03277083
168	0x3c856b72	0.016286585
169	0x3e3a486f	0.18191694
170	0xbd1ead3a	-0.03873942
171	0x3d25d98b	0.04049067
172	0xbd055d6f	-0.03255981
173	0xbe3afd20	-0.18260622
174	0x3d0c8a95	0.03431185
175	0xbdf226e1	-0.11823822
176	0xbe6bfbbb	-0.23045246
177	0xbe5b4de3	-0.2141643
178	0xbd73fa9d	-0.059565175
179	0xbdd98457	-0.10620945
180	0x3df6e85e	0.12056039
181	0x3c4dafd7	0.0125541305
182	0x3e840698	0.2578628
183	0x3de3ced2	0.11123432
184	0xbdb9207c	-0.09039399
185	0xbd2980b5	-0.04138251
186	0x3bab50f9	0.0052281586
187	0x3d739a5f	0.05947339
188	0xbe21ab8f	-0.157881
189	0xbd9eb18c	-0.07748708
190	0x3d79f186	0.06102135
191	0xbe312448	-0.17298996
192	0x3dc5741c	0.09641287
193	0xbe3a1583	-0.18172269
194	0xbd8341c4	-0.06409028
195	0xbe5e1ce2	-0.21690705
196	0xbe6252ec	-0.22101945
197	0x3d1a5696	0.03768023
198	0xbe9b30c6	-0.3031065
199	0xbedf90af	-0.43665072
200	0x3ddc736b	0.10764202
201	0x3e6947c5	0.22781284
202	0xbe3673c4	-0.17817599
203	0x3db07bd1	0.08617366
204	0xbd1c1696	-0.038107477
205	0xbd2b900a	-0.041885413
206	0x3c804692	0.01565865
207	0xbcb11df9	-0.021620737
208	0xbd93e31d	-0.07221053
209	0x3db68c17	0.08913439
210	0xbdeb1006	-0.114776656
211	0xbcc1ba5e	-0.023648437
212	0x3d211217	0.039323892
213	0xbdf2cddf	-0.11855673
214	0xbcbe5992	-0.02323607
215	0x3d757ac5	0.059931535
216	0x3c9dc394	0.019258298
217	0xbe33508e	-0.17511198
218	0xbe0850bb	-0.13312046
219	0x3deb402c	0.11486849
220	0x3af19a92	0.0018432906
221	0x3dbd5fc4	0.092467815
222	0x3d582b92	0.052775927
223	0xbe479dbc	-0.19493765
224	0x3dfe61bf	0.12420987
225	0xbe2d1978	-0.16904247
226	0xbc989c19	-0.01862912
227	0x3da45fc2	0.08026077
228	0xbe2c7780	-0.1684246
229	0x3bf902d3	0.0075992136
230	0xbe08e57f	-0.13368796
231	0xbcbc6529	-0.022997456
232	0x3dc011e4	0.09378412
233	0xbadb36d0	-0.001672471
234	0xbd965177	-0.07339757
235	0xbd6cd690	-0.05782181
236	0xbd82c472	-0.06385125
237	0xbe162c63	-0.1466537
238	0x3db1ffa7	0.0869134
239	0x3eec0ef9	0.46105173
240	0xbeb5be26	-0.35496634
241	0xbe60e656	-0.21962866
242	0x3e17d007	0.1482545
243	0x3e2bc913	0.16775922
244	0xbd9aad78	-0.07552618
245	0x3d4bd50f	0.049763735
246	0xbe65c2b8	-0.2243756
247	0x3c5206b9	0.012818986
248	0xbd470722	-0.048590787
249	0xbc8c1cef	-0.01710364
250	0xbc2d88a2	-0.010591658
251	0x39379029	0.00017505944
252	0x3da61e37	0.08111232
253	0xbe474911	-0.19461466
254	0x3c119e18	0.00888779
255	0xbe435783	-0.19076352

encoder2.0.bias f4 [32]
0	0x3d961e4f	0.0733
1	0x3e371ef3	0.178829
2	0x3de03ecd	0.10949478
3	0x3e01a70b	0.12661378
4	0x3e788bc9	0.24272074
5	0xbdb4d70e	-0.08830081
6	0xbe653930	-0.22385097
7	0x3e76738d	0.24067517
8	0xbdc07b0c	-0.09398469
9	0x3d47d344	0.048785463
10	0x3ea12bbb	0.31478676
11	0x3d790bef	0.060802396
12	0x3d42290b	0.047402423
13	0xbd32ccd5	-0.043652374
14	0xbe346bab	-0.17619197
15	0xbd1ba6b5	-0.03800078
16	0xbdc22bc1	-0.09481002
17	0x3d9c7108	0.076387465
18	0xbda71006	-0.08157353
19	0xbd6a82ac	-0.057253525
20	0xbb720990	-0.003693197
21	0x3cc7624d	0.024338866
22	0xbe777cc8	-0.24168694
23	0xbdb8e2f8	-0.09027666
24	0xbe0606d9	-0.1308855
25	0xbb189ab4	-0.002328557
26	0x3e56368d	0.20919247
27	0xbe321b65	-0.17393263
28	0xbdf3ffb0	-0.11914003
29	0x3e06d40e	0.1316683
30	0x3dc330cd	0.095307924
31	0xbd9d8fe1	-0.07693458

encoder2.2.weight f4 [32, 32]
0	0x3dd3aef8	0.10336107
1	0x3e8e7a1f	0.27827546
2	0x3dc60a9d	0.09669993
3	0x3eeec635	0.46635595
4	0xbc7ce554	-0.015435535
5	0x3e717745	0.23580654
6	0x3deea699	0.1165287
7	0xbe05d818	-0.13070714
8	0xbea6c8dd	-0.32575122
9	0xbd6b8dbd	-0.05750822
10	0x3e4f9e33	0.20275192
11	0xbed2c442	-0.41165358
12	0xbdafd84b	-0.085861765
13	0x3e509b44	0.20371729
14	0x3d36931c	0.04457389
15	0x3e36d2f7	0.17853914
16	0x3e0a0d96	0.13481745
17	0x3e7ee3fd	0.24891658
18	0xbe90b384	-0.2826196
19	0x3eaf6e43	0.3426381
20	0xbeb9a719	-0.36260298
21	0xbe123fc1	-0.14282133
22	0x3d23b219	0.03996477
23	0x3e880c62	0.26571947
24	0x3ea0e950	0.31428003
25	0xbddd50e7	-0.108064465
26	0x3ea521db	0.32252392
27	0x3ed0011f	0.40625855
28	0xbd53d22c	-0.051714107
29	0x3b97ab9a	0.004628611
30	0x3e9e7229	0.30946472
31	0x3e83e3d5	0.2575976
32	0x3d65eae6	0.05613222
33	0xbe879bbc	-0.26486003
34	0x3d534115	0.05157574
35	0x3e0bf711	0.13668467
36	0xbdf8526c	-0.12125096
37	0x3dfe1d4d	0.124079324
38	0x3e981ef6	0.2971112
39	0xbe080f59	-0.13287105
40	0xbdbc18a2	-0.09184386
41	0x3e3d70e4	0.18500096
42	0xbe5b01cc	-0.21387404
43	0x3dbbfd27	0.09179144
44	0xbe0e72f3	-0.13911037
45	0x3e40eb01	0.18839647
46	0x3ed28f2b	0.41124853
47	0x3ee9424b	0.4555839
48	0x3eb0bc89	0.3451884
49	0xbd3aef80	-0.04563856
50	0xbdb26fbf	-0.0871272
51	0x3e91f2e0	0.2850561
52	0xbe0bffe6	-0.13671836
53	0x3d8472e4	0.06467226
54	0x3eed24d1	0.4631715
55	0x3ee0394d	0.43793717
56	0x3e85b3b4	0.26113665
57	0x3e966086	0.29370517
58	0xbdbd54a0	-0.092446566
59	0x3e00df4e	0.12585184
60	0x3e6247b6	0.22097668
61	0xbea03537	-0.312906
62	0x3e1dfbf1	0.1542814
63	0x3e616fdb	0.22015326
64	0xbdb5267f	-0.08845233
65	0xbe993a49	-0.2992728
66	0x3e275040	0.16339207
67	0xbd1f478c	-0.03888659
68	0xbe816cd9	-0.25278357
69	0x3e4df3db	0.20112555
70	0x3df96019	0.12176532
71	0xbe8df1a6	-0.27723426
72	0x3e86f7e9	0.26361015
73	0x3dce04d9	0.10059518
74	0xbe442295	-0.19153817
75	0x3be9ed33	0.007138872
76	0x3d8db550	0.06919348
77	0xbe77ca69	-0.24198307
78	0x3e6aa322	0.22913793
79	0x3eb341fc	0.3501128
80	0x3d8840b6	0.06652968
81	0x3d71f9bb	0.059076052
82	0x3e78c68e	0.24294493
83	0x3c4f275c	0.012643661
84	0x3dc9844b	0.09839686
85	0x3d3a6d7d	0.045514572
86	0x3e2121a3	0.15735488
87	0x3d60cf53	0.05488522
88	0x3e90982d	0.282411
89	0x3e0c9c67	0.13731538
90	0xbe3e5a53	-0.18589143
91	0x3d98901e	0.07449363
92	0x3ead9e4f	0.33909842
93	0xbdc05d90	-0.09392846
94	0x3e5eee53	0.21770601
95	0x3e58fe5a	0.21190777
96	0xbe2c2087	-0.16809283
97	0x3ceb1609	0.02869703
98	0xbc818fd7	-0.015815658
99	0x3d2bafe0	0.041915774
100	0x3c9a320a	0.018822689
101	0xbdd7119d	-0.10501406
102	0x3dd3ab04	0.10335353
103	0x3dc81329	0.097692795
104	0x3cccac75	0.024984578
105	0xbda7ca12	-0.08192839
106	0x3e07cd0e	0.13261816
107	0xbe1337be	-0.14376733
108	0x3c9663de	0.018358167
109	0x3e01148c	0.12605494
110	0xbdcebe7a	-0.10094924
111	0x3dc56947	0.09639221
112	0xbe080335	-0.13282473
113	0x3e40f9af	0.18845247
114	0xbd0841e7	-0.033265974
115	0xbd795b4a	-0.060878076
116	0x3cb1fe4f	0.02172771
117	0xbe52c6c6	-0.20583639
118	0xbc272ae6	-0.010203099
119	0xbdac70bd	-0.084199406
120	0xbe16c8f7	-0.147251
121	0xbd6bff71	-0.057616655
122	0x3dd5b0c9	0.1043411
123	0x3b354387	0.0027658658
124	0xbdd40e31	-0.10354269
125	0xbe3a9f74	-0.18224889
126	0xbe006631	-0.12538983
127	0x3e44c002	0.1921387
128	0xbe1e81c0	-0.15479183
129	0x3e1355a5	0.1438814
130	0x3d31b646	0.04338672
131	0xbe19f8e0	-0.15036345
132	0xbcf0c7bb	-0.029392114
133	0xbdcb7359	-0.0993411
134	0xbd1461e5	-0.036226172
135	0xbcff11cd	-0.031136418
136	0xbe353a71	-0.17698075
137	0x3d2b521b	0.04182635
138	0xbdae7424	-0.08518246
139	0x3c1534a7	0.009106792
140	0xbe07f709	-0.1327783
141	0x3d31bcac	0.043392822
142	0x3cb0f37d	0.02160048
143	0xbe12667d	-0.14296909
144	0x3da3c9d0	0.07997477
145	0xbd542bdd	-0.051799644
146	0x3de29d0f	0.11065113
147	0xbd7de73f	-0.06198811
148	0x3d62de0a	0.055387534
149	0xbdbef534	-0.093241125
150	0x3e05d43d	0.13069244
151	0x3e27f453	0.16401796
152	0xbe352115	-0.17688401
153	0x3ddf2833	0.10896339
154	0xbcb2969b	-0.02180033
155	0xbd3d70bd	-0.046250094
156	0xbd7730df	-0.06034934
157	0x3e031f65	0.12804945
158	0xbb280a76	-0.0025641
159	0xbd41c5ca	-0.047307767
160	0x3ddaf235	0.106907286
161	0xbe992eb1	-0.29918435
162	0x3e9d9263	0.30775747
163	0xbd264899	-0.04059658
164	0xbe633799	-0.22189178
165	0xbc1213c0	-0.008915842
166	0x3ec4235a	0.3830822
167	0xbe0be009	-0.13659681
168	0x3de398c4	0.11113122
169	0xbce809dc	-0.028325014
170	0x3bf2785a	0.007399601
171	0xbc2b60c7	-0.010460085
172	0xbe610b8c	-0.21977061
173	0xbe8f2da2	-0.27964503
174	0x3ebfccf8	0.37461066
175	0x3ef1c67a	0.47221738
176	0x3e8de370	0.27712584
177	0xbe12d5ee	-0.1433942
178	0x3eab9416	0.33511418
179	0xbe1ad7a8	-0.15121329
180	0x3e542a8e	0.20719358
181	0x3e3fb8e9	0.18722881
182	0x3eae0cdd	0.3399419
183	0xbcec5cde	-0.028852876
184	0x3e519dde	0.20470378
185	0x3e990a24	0.2989055
186	0xbeab0a28	-0.33406186
187	0x3e1be480	0.15223885
188	0x3e1e8d5a	0.15483609
189	0xbe90ce80	-0.28282547
190	0x3db8739d	0.090064265
191	0x3e2a2fa4	0.16619736
192	0x3dbb30ab	0.09140142
193	0x3ea4acca	0.32163078
194	0xbd1804ce	-0.037113957
195	0x3e77eea7	0.24212132
196	0xbe08580a	-0.13314834
197	0x3edbc0d4	0.42920554
198	0x3e7c607c	0.24646181
199	0x3c85bf6e	0.016326632
200	0xbe7b83a1	-0.24561931
201	0x3d3bc312	0.04584033
202	0x3da7c551	0.08191932
203	0xbd7ab7fb	-0.061210614
204	0xbd80c187	-0.062869124
205	0x3dc86417	0.097847156
206	0x3c48da97	0.012259147
207	0x3d1d603f	0.038421866
208	0x3e40d892	0.18832615
209	0x3edfc733	0.43706664
210	0xbe57bb6a	-0.21067587
211	0x3ed559a6	0.4166996
212	0xbeb93f26	-0.3618099
213	0xbeb6a91a	-0.3567589
214	0x3ea4185c	0.32049835
215	0x3eb1de47	0.34739897
216	0x3e7186fe	0.23586652
217	0xbd837ec0	-0.0642066
218	0x3e185bc1	0.14878751
219	0x3e4e5749	0.20150484
220	0x3db832ab	0.08994039
221	0xbe481e2b	-0.19542758
222	0x3ed188fa	0.40924817
223	0x3e1cc654	0.15310031
224	0x3cb82d24	0.022482462
225	0xbe95195b	-0.29120907
226	0x3da2a8bd	0.079423405
227	0x3d3d55e7	0.0462245
228	0xbe8f4c15	-0.27987733
229	0x3c9144fd	0.017733091
230	0x3e696bdb	0.2279505
231	0xbd3ec55c	-0.046574935
232	0xbcefaeea	-0.02925821
233	0x3e32c2a3	0.1745706
234	0xbb36efbc	-0.002791389
235	0x3e723e3e	0.23656556
236	0xbe8fa96a	-0.2805894
237	0xbe71a24b	-0.23597066
238	0x3ec13fa3	0.37743863
239	0x3e67d26a	0.2263886
240	0x3e9873ca	0.2977584
241	0xbe126169	-0.14294972
242	0x3da3d2ba	0.07999177
243	0x3e709db1	0.23497654
244	0x3e157d01	0.14598466
245	0x3d911ea9	0.07085926
246	0x3ec441d8	0.38331485
247	0x3e56dbe2	0.20982316
248	0x3cd83640	0.026393056
249	0x3e554151	0.20825697
250	0xbe4c82b9	-0.19971742
251	0x3e16d5b5	0.1472996
252	0x3e990ef9	0.29894236
253	0xbe6af5a4	-0.22945267
254	0x3e771d72	0.24132326
255	0x3e254b57	0.16142021

encoder2.2.bias f4 [32]
0	0xbe1a9942	-0.15097526
1	0x3d8a6aee	0.067586765
2	0x3dfa894a	0.12233217
3	0xbe39ca01	-0.18143465
4	0xbe169d4b	-0.1470844
5	0xbe34d0a4	-0.17657715
6	0x3d0f5a95	0.034998495
7	0xbe12f096	-0.14349589
8	0x3e0d677b	0.13809006
9	0x3e08202e	0.13293526
10	0x3e4225b9	0.18959703
11	0x3dcd5098	0.10025138
12	0xbd2202a7	-0.03955331
13	0xbd8dbfd9	-0.06921358
14	0x3e8fd2cd	0.28090516
15	0x3e922899	0.285466
16	0x3e18ca6d	0.1492097
17	0x3d6adeda	0.057341434
18	0x3da842e7	0.082158856
19	0x3def17ad	0.11674438
20	0x3ddfa953	0.10920968
21	0xbe0ad7c2	-0.13558868
22	0xbcc9fc35	-0.024656394
23	0x3e0d1408	0.13777173
24	0x3db25080	0.087067604
25	0x3e36d3e7	0.17854272
26	0xbda2da76	-0.07951824
27	0xbe587c9e	-0.21141288
28	0x3df212d3	0.11819997
29	0xbde046a5	-0.109509744
30	0x3dee9282	0.11649038
31	0xbe565b09	-0.20933165

mu.weight f4 [2, 32]
0	0xbedc5ff7	-0.43041965
1	0xbed1a91f	-0.40949342
2	0xbebf48ea	-0.37360317
3	0xbdf2bcbe	-0.11852406
4	0x3d1fda0c	0.039026305
5	0xbe4e8f78	-0.20171916
6	0xbee3e4e3	-0.44510564
7	0xbebd15f4	-0.3693081
8	0x3dd2c937	0.10292285
9	0xbb54a0ac	-0.00324444
10	0x3eef9dec	0.46800172
11	0xbe9385cb	-0.28813013
12	0xbeeb1570	-0.45914793
13	0xbf051919	-0.5199142
14	0x3ed28a04	0.41120923
15	0x3ee6a236	0.45045632
16	0x3e9ea75b	0.30987057
17	0x3bf4e0c1	0.007473082
18	0xbed3388c	-0.4125408
19	0x3e8092c6	0.2511198
20	0xbe1321e8	-0.14368403
21	0x3d3e1585	0.04640724
22	0x3f023b23	0.50871485
23	0x3ecdaea3	0.401723
24	0xbd5f978c	-0.054587886
25	0x3efb7275	0.4911076
26	0x3e8dcbd4	0.2769457
27	0xbf0e25d8	-0.55526495
28	0xbd6e85ae	-0.058232956
29	0xbec71771	-0.38885072
30	0x3dd22765	0.1026142
31	0xbee4fbf3	-0.44723472
32	0x3eb5cfdf	0.35510156
33	0xbe5c2f0f	-0.21502326
34	0xbef76598	-0.48319697
35	0xbd911382	-0.07083799
36	0x3d167913	0.03673656
37	0xbea37cf4	-0.3193127
38	0x3e951503	0.29117593
39	0xbeae6adc	-0.34065902
40	0x3eb6677d	0.3562583
41	0x3ef07e03	0.4697114
42	0x3e977c68	0.29587102
43	0x3eb34993	0.3501707
44	0xbcd00392	-0.025392327
45	0xbe73b357	-0.23798881
46	0x3e9a2cb4	0.3011223
47	0x3e930d7f	0.28721234
48	0xbed3ea48	-0.4138968
49	0xbef9c9aa	-0.4878667
50	0xbe75d670	-0.24007583
51	0xbefd74a8	-0.49503064
52	0xbeca81ab	-0.39552054
53	0x3d4afb94	0.04955633
54	0xbe333c21	-0.17503406
55	0xbe759214	-0.23981506
56	0x3f026e86	0.50949895
57	0xbf0055ee	-0.5013112
58	0xbf01b9e8	-0.50674295
59	0x3d62fbc9	0.055415902
60	0xbdfdaccf	-0.12386476
61	0xbec05713	-0.37566432
62	0x3f063372	0.5242225
63	0xbed62cdf	-0.4183111

mu.bias f4 [2]
0	0x3e182434	0.1485756
1	0xbd8d428f	-0.06897461

log_sigma.weight f4 [2, 32]
0	0x3da1646e	0.078804836
1	0x3d9bb0a2	0.076020494
2	0x3dc56f72	0.09640397
3	0xbde4d59f	-0.111735575
4	0xbddfd926	-0.1093009
5	0x3e124ef5	0.14287932
6	0xbdddf0b7	-0.10836928
7	0xbd230db0	-0.039807975
8	0x3d56372c	0.05229871
9	0xbe0dc203	-0.13843541
10	0xbdc3d6f1	-0.09562481
11	0xbd222154	-0.039582565
12	0x3dedab66	0.11604957
13	0x3d8b66e2	0.06806733
14	0xbd81cadf	-0.06337523
15	0x3d89e612	0.067333356
16	0xbe1ce008	-0.15319836
17	0xbdbd90c5	-0.09256128
18	0x3e00f5fb	0.12593834
19	0xbde3202f	-0.11090123
20	0x3e1c96a7	0.15291844
21	0xbd78f42c	-0.060779735
22	0xbd4f93b0	-0.050677955
23	0x3e13efb9	0.14446916
24	0xbdb2828e	-0.087163076
25	0x3df8b77a	0.121443704
26	0xbd6e4d10	-0.05817896
27	0xbe19f074	-0.15033132
28	0x3deec276	0.11658184
29	0x3dd6b3ba	0.10483499
30	0xbdcac417	-0.099006824
31	0x3db9201a	0.09039326
32	0xbd592d32	-0.053021617
33	0x3dad0a92	0.08449282
34	0x3d8c3168	0.06845361
35	0xbae35100	-0.0017342865
36	0xbd38f384	-0.04515411
37	0xbe20b0c2	-0.15692428
38	0x3b14cc80	0.00227049
39	0xbe249492	-0.160723
40	0x3cd0e8c0	0.025501609
41	0x3cfc5728	0.030803278
42	0xbd996b92	-0.074912205
43	0x3c2a8070	0.010406598
44	0xbcaeb8a8	-0.021328285
45	0xbb452940	-0.0030084401
46	0xbe302c27	-0.17204343
47	0x3d289a94	0.041163042
48	0xbdf47d1a	-0.11937924
49	0x3bd44ec0	0.0064791143
50	0xbde2d314	-0.11075416
51	0xbe16125f	-0.14655446
52	0xbe10256e	-0.14076778
53	0x3d590758	0.05298552
54	0xbda12a2b	-0.07869371
55	0x3c33f980	0.010984778
56	0x3ce7df10	0.028304607
57	0xbe09fc7c	-0.13475221
58	0x3b8656e0	0.004099712
59	0x3de48296	0.1115772
60	0xbd9a88ab	-0.075455986
61	0x3ce318b0	0.027721733
62	0x3e09ff91	0.13476397
63	0x3dd79f0a	0.10528381

log_sigma.bias f4 [2]
0	0xbdd8fdd0	-0.10595286
1	0xbde12092	-0.109925404
