Code from Finland_2nd_update/pooling_model_v2.onnx (onnx, 31033 bytes, 12 tensors)

encoder1.0.bias f4 [32]
0.06581719 -0.31151736 -0.41580924 0.8371869 0.44188365 0.16167656 0.5609285 -0.15637298
0.028683536 -0.5121043 0.32374296 -0.3763847 -0.3192431 0.20099573 -0.29953042 0.76191187
0.17285518 0.50220245 0.70433015 0.30920538 0.7014191 0.23187745 0.3018821 -0.015874071
-0.0456686 -0.47104993 0.5161299 0.068692006 -0.018325035 -0.3365724 0.55417496 0.10830404
00000000: 2acb 863d 347f 9fbe f3e4 d4be e151 563f
00000010: 933e e23e 8a8e 253e 0399 0f3f 3d20 20be
00000020: bcf9 ea3c 4419 03bf a3c1 a53e 7fb5 c0be
00000030: d573 a3be d3d1 4d3e 0d5c 99be a80c 433f
00000040: f300 313e 5790 003f fb4e 343f 2b50 9e3e
00000050: 3490 333f 4871 6d3e 4a90 9a3e 570a 82bc
00000060: ff0e 3bbd 752d f1be 1721 043f 65ae 8c3d
00000070: 621e 96bc 3853 acbe 69de 0d3f 82ce dd3d

encoder1.2.bias f4 [32]
0.12498587 0.25739902 0.1585456 -0.035625238 0.0071693608 0.1816325 0.1291289 0.21930778
0.010389541 -0.11607457 0.16030258 0.12045405 0.2801228 0.09929884 0.19094303 0.29695863
0.1789855 0.29360214 0.07662092 0.11873868 0.18852517 0.029438034 0.16643752 -0.036873132
0.10034175 0.13627656 0.011434986 -0.03448651 0.12078203 0.07224843 0.21208228 0.09824464
00000000: 98f8 ff3d cec9 833e c759 223e c5eb 11bd
00000010: f5ec ea3b dffd 393e 5e3a 043e 3892 603e
00000020: e538 2a3c 81b8 edbd 5c26 243e 9db0 f63d
00000030: 416c 8f3e 315d cb3d 9286 433e f60a 983e
00000040: fa47 373e 0553 963e 6eeb 9c3d 442d f33d
00000050: be0c 413e 0828 f13c 996e 2a3e 4808 17bd
00000060: fa7f cd3d 158c 0b3e cf59 3b3c ba41 0dbd
00000070: 925c f73d fcf6 933d 192c 593e 7c34 c93d

encoder1.4.bias f4 [32]
-0.12858152 -0.2340819 0.05034873 -0.29150572 -0.079603955 0.22359417 -0.10572785 0.078560665
0.06385805 -0.034872103 0.22288877 -0.0922438 0.13043399 -0.13700125 0.19079144 -0.03907198
0.08048853 -0.061000116 0.17225014 -0.012710869 -0.19505832 -0.15424004 -0.089585476 0.21332747
0.0070058345 0.09696203 -0.061424483 0.12970054 0.07558808 -0.15854383 -0.046653725 -0.1495851
00000000: e0aa 03be 2ab3 6fbe 783a 4e3d 3d40 95be
00000010: 6607 a3bd dff5 643e d887 d8bd 6ae4 a03d
00000020: 02c8 823d 0dd6 0ebd f43c 643e 51ea bcbd
00000030: 7d90 053e 0e4a 0cbe d55e 433e f109 20bd
00000040: 2cd7 a43d 42db 79bd 5762 303e 4041 50bc
00000050: 5ebd 47be 1af1 1dbe 9778 b7bd 8472 5a3e
00000060: 3391 e53b 0794 c63d 3d98 7bbd 38d0 043e
00000070: eccd 9a3d 5059 22be fa17 3fbd d62c 19be

encoder2.0.bias f4 [32]
0.0733 0.178829 0.10949478 0.12661378 0.24272074 -0.08830081 -0.22385097 0.24067517
-0.09398469 0.048785463 0.31478676 0.060802396 0.047402423 -0.043652374 -0.17619197 -0.03800078
-0.09481002 0.076387465 -0.08157353 -0.057253525 -0.003693197 0.024338866 -0.24168694 -0.09027666
-0.1308855 -0.002328557 0.20919247 -0.17393263 -0.11914003 0.1316683 0.095307924 -0.07693458
00000000: 4f1e 963d f31e 373e cd3e e03d 0ba7 013e
00000010: c98b 783e 0ed7 b4bd 3039 65be 8d73 763e
00000020: 0c7b c0bd 44d3 473d bb2b a13e ef0b 793d
00000030: 0b29 423d d5cc 32bd ab6b 34be b5a6 1bbd
00000040: c12b c2bd 0871 9c3d 0610 a7bd ac82 6abd
00000050: 9009 72bb 4d62 c73c c87c 77be f8e2 b8bd
00000060: d906 06be b49a 18bb 8d36 563e 651b 32be
00000070: b0ff f3bd 0ed4 063e cd30 c33d e18f 9dbd

encoder2.2.bias f4 [32]
-0.15097526 0.067586765 0.12233217 -0.18143465 -0.1470844 -0.17657715 0.034998495 -0.14349589
0.13809006 0.13293526 0.18959703 0.10025138 -0.03955331 -0.06921358 0.28090516 0.285466
0.1492097 0.057341434 0.082158856 0.11674438 0.10920968 -0.13558868 -0.024656394 0.13777173
0.087067604 0.17854272 -0.07951824 -0.21141288 0.11819997 -0.109509744 0.11649038 -0.20933165
00000000: 4299 1abe ee6a 8a3d 4a89 fa3d 01ca 39be
00000010: 4b9d 16be a4d0 34be 955a 0f3d 96f0 12be
00000020: 7b67 0d3e 2e20 083e b925 423e 9850 cd3d
00000030: a702 22bd d9bf 8dbd cdd2 8f3e 9928 923e
00000040: 6dca 183e dade 6a3d e742 a83d ad17 ef3d
00000050: 53a9 df3d c2d7 0abe 35fc c9bc 0814 0d3e
00000060: 8050 b23d e7d3 363e 76da a2bd 9e7c 58be
00000070: d312 f23d a546 e0bd 8292 ee3d 095b 56be

mu.bias f4 [2]
0.1485756 -0.06897461
00000000: 3424 183e 8f42 8dbd

onnx::MatMul_107 f4 [2, 32]
0.246486 -0.32441965 -0.7222025 -0.1793361 -0.75979006 -0.62394625 -0.26990142 0.28671017
0.7533747 -0.8064236 0.37180594 -0.7591916 0.70961106 -0.58781755 0.20458063 0.54456925
-0.39873052 0.31981552 -0.22264595 0.14989775 -0.13553615 -0.027230287 0.73502463 -0.6070977
-0.06950703 -0.27340344 -0.62423253 0.64865756 -0.47368425 0.58856505 -0.9462569 0.26192117
-0.3145066 -0.6130712 -0.24525082 0.3213413 0.29573703 0.25371182 -0.043916598 1.3481314
-0.6175339 -0.1335293 0.93195444 0.68087983 -0.2541575 0.54416466 -0.26361257 0.49510658
0.43392423 0.011674408 0.05053533 -0.16869211 -0.5269106 0.17649966 -0.66333526 0.29405105
-0.17818148 0.26907456 -0.43127018 -0.2958741 -0.3598806 -0.61274844 0.42039347 -0.20912422
00000000: d366 7c3e 551a a6be 43e2 38bf e2a3 37be
00000010: 9a81 42bf f1ba 1fbf 8530 8abe adcb 923e
00000020: 2add 403f c771 4ebf 595d be3e 615a 42bf
00000030: 12a9 353f 367b 16bf 967d 513e e468 0b3f
00000040: 6826 ccbe dcbe a33e 4dfd 63be cc7e 193e
00000050: fdc9 0abe 0d12 dfbc 932a 3c3f c16a 1bbf
00000060: b459 8ebd 89fb 8bbe b4cd 1fbf 6c0e 263f
00000070: be86 f2be 33ac 163f e43d 72bf 881a 863e
00000080: 0207 a1be 3cf2 1cbf 0823 7bbe d986 a43e
00000090: d86a 973e 84e6 813e e4e1 33bd 928f ac3f
000000a0: b416 1ebf e8bb 08be 9194 6e3f 244e 2e3f
000000b0: ef20 82be 604e 0b3f 3af8 86be 9c7e fd3e
000000c0: 512b de3e 0446 3f3c 22fe 4e3d a0bd 2cbe
000000d0: 9de3 06bf 54bc 343e 57d0 29bf dc8d 963e
000000e0: 3575 36be 24c4 893e 72cf dcbe cf7c 97be
000000f0: 4542 b8be 15dd 1cbf d03d d73e a924 56be

onnx::MatMul_108 f4 [32, 32]
0.288409 -0.05461044 0.12513526 -0.11969863 -0.046477124 -0.0494973 0.059347626 0.016357284
-0.07381781 -0.14886513 -0.01269911 -0.037923288 0.011412121 0.08650137 0.27089888 0.3233539
0.15775602 0.1572559 0.0789149 0.07198303 -0.056589555 0.19888055 0.081042916 0.05891238
0.13629499 0.026103308 0.09809446 0.021838244 0.039114907 0.076822706 -0.04524215 0.10432357
0.08902977 0.092751354 0.10151688 0.18312998 0.05273638 0.026419798 -0.09532464 0.14989477
-0.0025472208 0.2811289 -0.033656668 0.16083595 0.25615963 0.09540873 -0.03454962 0.013898355
0.080237955 0.25545815 0.13589597 0.11645281 0.13569014 0.118831925 0.1720014 0.14270927
-0.108227015 -0.072120234 0.16927135 -0.047870915 -0.053556286 0.06799735 0.2620731 0.092439875
0.034914974 0.10135469 0.121607564 0.17673777 -0.07623913 0.19518054 0.09139297 0.18757276
0.2098295 0.07031458 0.15303552 0.12448837 -0.030373951 -0.049501 0.22134404 -0.014573083
-0.0038404416 0.04576274 0.29417092 -0.048519894 0.16428705 0.032961648 0.013386338 -0.07000649
0.060152784 -0.046185967 0.105150476 0.13724649 0.05119371 0.13223848 -0.03373133 -0.022273388
0.14651637 0.05656179 0.0126138395 -0.21817775 0.3213463 -0.0035751509 -0.09707679 -0.031158922
-0.034075957 -0.22033116 0.07555195 -0.046139475 0.1281016 0.11888136 0.1116556 0.101040006
-0.0088164415 0.0465892 -0.010184777 0.14072035 0.016640691 0.17197865 0.058302674 0.060227294
0.30818772 0.28888574 0.2738108 0.3322368 -0.06170506 0.123375066 0.06740439 0.28152978
-0.07999237 0.25007123 0.017551916 0.14787625 0.061539732 0.1949341 0.19841585 0.09961248
0.30280694 0.1843778 0.23013066 2.7577777e-05 0.26653677 -0.054732636 0.022902306 0.060228784
0.25790638 -0.10497201 0.20285332 0.23487578 0.279945 0.0015645002 0.031124849 0.045516644
0.30935606 -0.08247258 -0.13728267 -0.023218103 0.07467529 0.32964236 0.044107802 0.04727953
0.061074127 0.20910786 -0.049876742 0.09427835 0.12630598 0.38047704 0.21424468 0.23376027
0.25777003 0.15529507 0.21299598 0.13332391 0.21680868 0.05504299 0.21975103 0.02070098
0.08219772 -0.08214311 0.20239885 0.19669142 0.17861421 0.22170545 0.26483336 0.08205565
0.057049826 -0.025907196 -0.16264269 -0.11244679 0.30075845 0.030250562 -0.021490825 0.0120278
0.051573485 0.032670304 -0.08271493 -0.07486568 -0.041739874 -0.0013296112 0.24132702 0.22678538
-0.031825364 0.10513217 -0.05979053 0.11686541 0.28682753 0.070366904 0.042154815 0.16926023
0.21650693 0.19526103 0.2653485 0.0909334 -0.04082346 0.06563855 0.19311605 0.008775876
0.12763883 0.039526064 0.25255018 0.10536205 0.12897268 0.076948866 0.03305809 0.13470444
0.19612317 0.47167957 -0.031957928 0.4134083 -0.04677192 0.0021445528 0.08419233 0.43804252
0.4608629 0.22998485 -0.28950304 0.14440632 0.24823089 -0.010130671 -0.15740022 0.007821144
0.10319726 0.34489188 0.24717927 0.039693438 0.35741046 0.12391028 0.03565049 -0.28358454
-0.1428326 -0.04059523 -0.14154992 -0.1454762 -0.016732024 0.08217437 0.50900346 -0.18172574
00000000: 58aa 933e 32af 5fbd 7523 003e 8e24 f5bd
00000010: cc5e 3ebd aebd 4abd 7f16 733d b6ff 853c
00000020: cb2d 97bd 1a70 18be ee0f 50bc 7355 1bbd
00000030: e8f9 3a3c a127 b13d 42b3 8a3e a48e a53e
00000040: cb8a 213e b107 213e 239e a13d d76b 933d
00000050: 73ca 67bd 58a7 4b3e d4f9 a53d 1c4e 713d
00000060: ea90 0b3e 9bd6 d53c c0e5 c83d 1ee6 b23c
00000070: f436 203d 3955 9d3d d54f 39bd 99a7 d53d
00000080: 3d55 b63d 6cf4 bd3d 15e8 cf3d 6d86 3b3e
00000090: 1a02 583d 556e d83c 9139 c3bd 047e 193e
000000a0: 46ef 26bb 21f0 8f3e 93db 09bd 2eb2 243e
000000b0: 5b27 833e a765 c33d e783 0dbd edb5 633c
000000c0: cc53 a43d 69cb 823e 5028 0b3e d07e ee3d
000000d0: 5bf2 0a3e 275e f33d 2321 303e 6122 123e
000000e0: 20a6 ddbd c6b3 93bd 7855 2d3e 4b14 44bd
000000f0: d65d 5bbd 3242 8b3d 722e 863e 1e51 bd3d
00000100: 0103 0f3d 0c93 cf3d 630d f93d bffa 343e
00000110: 4323 9cbd 68dd 473e 3d2c bb3d 1313 403e
00000120: 8bdd 563e 1701 903d 58b5 1c3e c2f3 fe3d
00000130: cbd2 f8bc 90c1 4abd 03a8 623e f1c3 6ebc
00000140: ebaf 7bbb b671 3b3d 929d 963e ccbc 46bd
00000150: dd3a 283e cb02 073d 5f52 5b3c 905f 8fbd
00000160: c462 763d 7f2d 3dbd 2259 d73d 588a 0c3e
00000170: 7fb0 513d 8669 073e dd29 0abd ae76 b6bc
00000180: 6308 163e 56ad 673d 47aa 4e3c fd69 5fbe
00000190: 8187 a43e 144d 6abb 32d0 c6bd ff40 ffbc
000001a0: 3b93 0bbd 7e9e 61be fbba 9a3d bffc 3cbd
000001b0: 112d 033e 1278 f33d b1ab e43d 10ee ce3d
000001c0: d672 10bc 51d4 3e3d 0dde 26bc ff18 103e
000001d0: 0f52 883c 2c1b 303e c9ce 6e3d e5b0 763d
000001e0: c8ca 9d3e d5e8 933e ee30 8c3e f11a aa3e
000001f0: 72be 7cbd 11ac fc3d 500b 8a3d ac24 903e
00000200: 0ad3 a3bd 5609 803e 09c9 8f3c df6c 173e
00000210: 1611 7c3d ce9c 473e 862d 4b3e a101 cc3d
00000220: 8309 9b3e 89cd 3c3e 5fa7 6b3e d356 e737
00000230: 8277 883e 542f 60bd 9e9d bb3c 75b2 763d
00000240: 4e0c 843e 91fb d6bd c8b8 4f3e 4783 703e
00000250: f354 8f3e ea0f cd3a 8af9 fe3c a96f 3a3d
00000260: eb63 9e3e 62e7 a8bd d493 0cbe e433 bebc
00000270: 5cef 983d e2c6 a83e 62aa 343d 2ea8 413d
00000280: dd28 7a3d 5f20 563e 8e4b 4cbd 0215 c13d
00000290: 5b56 013e e3cd c23e f562 5b3e da5e 6f3e
000002a0: 6ffa 833e ac05 1f3e 9e1b 5a3e 1086 083e
000002b0: 1803 5e3e c274 613d 6a06 613e 1a95 a93c
000002c0: 4757 a83d a63a a8bd a541 4f3e 7a69 493e
000002d0: a5e6 363e c106 633e 3d98 873e cb0c a83d
000002e0: 14ad 693d 543b d4bc ce8b 26be 814a e6bd
000002f0: 03fd 993e 07d0 f73c 870d b0bc 4010 453c
00000300: b83e 533d 4cd1 053d 7266 a9bd 2d53 99bd
00000310: 6ef7 2abd 5946 aeba 6e1e 773e 6d3a 683e
00000320: 505b 02bd 894f d73d eae6 74bd 2257 ef3d
00000330: 0fdb 923e 861c 903d 87aa 2c3d 8e52 2d3e
00000340: feb3 5d3e 82f2 473e c2db 873e 4a3b ba3d
00000350: 8036 27bd 816d 863d 37c0 453e b1c8 0f3c
00000360: c1b3 023e 15e6 213d 424e 813e 0fc8 d73d
00000370: 6a11 043e 5e97 9d3d eb67 073d f6ef 093e
00000380: 83d4 483e fc7f f13e 51e6 02bd 41aa d33e
00000390: ea93 3fbd a08b 0c3b 076d ac3d 1c47 e03e
000003a0: 39f6 eb3e 2681 6b3e be39 94be 40df 133e
000003b0: 3d30 7e3e 1dfb 25bc 862d 21be 4124 003c
000003c0: 1659 d33d ab95 b03e 901c 7d3e 9695 223d
000003d0: 81fe b63e acc4 fd3d 4006 123d fe31 91be
000003e0: b642 12be 2f47 26bd 76f2 10be b7f7 14be
000003f0: 9911 89bc 094b a83d 0d4e 023f 5016 3abe

onnx::MatMul_109 f4 [32, 32]
-0.19921173 -0.022878734 0.16046305 -0.09286029 0.004511814 0.30947852 -0.10263874 -0.23273736
-0.02546451 -0.2239644 0.15760364 -0.05905179 -0.21136045 -0.1762415 0.08979201 -0.025384616
0.2711093 0.048349574 0.16088346 -0.070050664 -0.068403274 0.08741017 0.08818853 -0.09040786
-0.23575404 0.10834805 -0.21572341 -0.18890072 0.21541268 0.08592695 0.18875207 0.041765284
0.036051404 0.037954167 0.26026854 -0.27426285 -0.20635659 0.21733433 -0.19535065 -0.10792939
-0.28876796 -0.22811672 0.26372358 -0.06258809 -0.04455101 -0.20775615 -0.10978914 -0.1545594
0.16872513 -0.015981784 -0.08282637 0.17823763 -0.209342 -0.19606054 0.078824095 -0.14098154
-0.29186332 -0.08257399 -0.055435646 -0.12521948 -0.065149486 -0.1456888 0.18385316 -0.11137825
-0.097984634 -0.14638856 0.053145725 0.04286006 -0.13367249 0.050564326 -0.1952597 -0.080254935
-0.013608497 -0.19611059 0.09594884 -0.12077486 -0.11276251 -0.09681133 0.04843817 -0.111012705
0.10350904 0.04710223 -0.19327073 0.14242253 -0.23819761 -0.014757931 -0.019667411 -0.21725106
-0.0943315 -0.28683063 -0.047386874 -0.02057405 -0.104257494 0.11411516 0.038579497 -0.14072101
0.12114802 -0.22219525 0.12583631 -0.12566634 -0.23468383 0.4038217 -0.19020246 0.15793298
-0.30712655 -0.15976967 0.24753912 -0.090324685 0.08030683 -0.06711357 -0.12470858 0.10410905
0.1579836 0.106013365 0.15079357 -0.09431236 -0.11089407 -0.28144583 0.32100624 0.06869973
-0.0155087765 0.19819993 0.19394459 -0.011269828 0.03219223 -0.09045697 -0.1669219 0.067282826
-0.23750643 -0.24045037 -0.06704613 -0.050654512 -0.16201916 0.063804634 0.11822907 -0.20519942
0.036793996 -0.1953814 0.06648822 -0.09356477 -0.32057443 -0.043296717 0.29855102 -0.27757424
0.030803526 -0.019349098 -0.1093673 0.21881226 -0.25459132 0.033922866 0.015442909 -0.22347313
0.063903786 -0.30256113 -0.01857797 -0.10452019 0.25338948 -0.0060693827 0.21146661 0.08888707
-0.085235916 -0.14897916 -0.08227207 -0.030757299 -0.030081177 0.21539013 -0.2638316 -0.08462077
0.07059016 -0.31199184 0.13362347 -0.22406499 -0.10130332 -0.18477942 0.12970842 -0.20252545
-0.10135597 -0.102777 -0.034773577 0.113150336 0.05305816 -0.24356389 0.2668804 -0.25574517
-0.008154835 -0.033736415 -0.1693587 0.06513123 -0.011790449 -0.21575199 0.3032031 -0.053004615
0.057539187 -0.10757409 -0.041209526 -0.0048215175 -0.2218603 0.10210032 0.03964245 -0.05049365
-0.050128754 -0.10523765 0.21920899 -0.047242723 -0.070733465 -0.110130176 -0.11867953 -0.013605697
0.11725886 -0.24513172 0.05631983 0.007941546 0.11518581 -0.16826513 0.25909567 -0.2526423
-0.15446684 -0.20669709 -0.18531138 -0.040632874 0.09221653 -0.2839004 -0.07038592 -0.2041795
0.104999244 0.015628116 0.118091725 -0.21355122 -0.26092014 0.2534347 -0.25527185 0.13046493
-0.22058372 0.10721245 0.047687102 0.03941088 -0.15023196 -0.07674308 -0.03228891 0.025907816
0.027990548 -0.038548734 0.20780063 -0.10692251 0.0026294328 -0.2650334 0.1323675 -0.0014429943
-0.23071411 -0.20800397 -0.13034658 -0.06439117 0.23298493 -0.16507834 0.039395165 -0.06022508
00000000: 29fe 4bbe 2f6c bbbc 6d50 243e 892d bebd
00000010: d7d7 933b f873 9e3e 4234 d2bd b452 6ebe
00000020: f39a d0bc ec56 65be d962 213e 4ae0 71bd
00000030: e06e 58be a778 34be e0e4 b73d 66f3 cfbc
00000040: d7ce 8a3e 340a 463d a2be 243e b976 8fbd
00000050: 0417 8cbd 1a04 b33d 309c b43d c227 b9bd
00000060: 8269 71be 95e5 dd3d 99e6 5cbe 316f 41be
00000070: 2495 5c3e 78fa af3d 3948 413e 1312 2b3d
00000080: a3aa 133d d475 1b3d eb41 853e 2e6c 8cbe
00000090: 244f 53be e48c 5e3e 000a 48be 160a ddbd
000000a0: 65d9 93be 6e97 69be c706 873e 2f2e 80bd
000000b0: 1f7b 36bd 07be 54be 21d9 e0bd d244 1ebe
000000c0: 48c6 2c3e 3bec 82bc dfa0 a9bd ed83 363e
000000d0: c05d 56be 18c4 48be 876e a13d 775d 10be
000000e0: 1c6f 95be 8d1c a9bd 7d10 63bd 8939 00be
000000f0: 186d 85bd 722f 15be 0144 3c3e 481a e4bd
00000100: 2bac c8bd e2e6 15be 55af 593d 088e 2f3d
00000110: 71e1 08be 8a1c 4f3d 29f2 47be b35c a4bd
00000120: 2cf6 5ebc 37d1 48be d380 c43d cf58 f7bd
00000130: 08f0 e6bd 0545 c6bd 1a67 463d a15a e3bd
00000140: 8cfc d33d 45ee 403d c3e8 45be 36d7 113e
00000150: 13ea 73be 40cb 71bc 8d1d a1bc 1077 5ebe
00000160: e030 c1bd 77db 92be bd18 42bd e98a a8bc
00000170: f484 d5bd 36b5 e93d 8905 1e3d 2b19 10be
00000180: 741c f83d 2787 63be 3cdb 003e adae 00be
00000190: f550 70be b8c1 ce3e 6fc4 42be 2fb9 213e
000001a0: b13f 9dbe a99a 23be e57a 7d3e 26fc b8bd
000001b0: e877 a43d d772 89bd 3667 ffbd 2037 d53d
000001c0: 74c6 213e 891d d93d a169 1a3e d726 c1bd
000001d0: 6e1c e3bd ab19 90be ee5a a43e 72b2 8c3d
000001e0: 8618 7ebc ecf4 4a3e 6999 463e 16a5 38bc
000001f0: 00dc 033d 8141 b9bd 93ed 2abe 94cb 893d
00000200: e334 73be 9f38 76be 7b4f 89bd 1b7b 4fbd
00000210: 5ae8 25be 01ac 823d 1522 f23d cc1f 52be
00000220: 4db5 163d 1012 48be fa2a 883d e39e bfbd
00000230: 5522 a4be e657 31bd aedb 983e 361e 8ebe
00000240: ad57 fc3c 0082 9ebc f7fb dfbd 5210 603e
00000250: cb59 82be b4f2 0a3d 4104 7d3c 24d6 64be
00000260: fddf 823d 4be9 9abe d430 98bc ae0e d6bd
00000270: 44bc 813e ace1 c6bb b48a 583e 6d0a b63d
00000280: 2b90 aebd fe8d 18be 427e a8bd bbf6 fbbc
00000290: cd6c f6bc 3b8f 5c3e ef14 87be a74d adbd
000002a0: 9391 903d 65bd 9fbe 97d4 083e 4b71 65be
000002b0: 1d78 cfbd d136 3dbe 49d2 043e d562 4fbe
000002c0: b893 cfbd bf7c d2bd bd6e 0ebd 5dbb e73d
000002d0: 8353 593d d068 79be 8ca4 883e 08f1 82be
000002e0: db9b 05bc 322f 0abd 5e6c 2dbe 8663 853d
000002f0: ba2c 41bc 17ee 5cbe 703d 9b3e 5e1b 59bd
00000300: 36ae 6b3d ce4f dcbd 52cb 28bd d2fd 9dbb
00000310: 592f 63be f919 d13d 1f60 223d 6ed2 4ebd
00000320: cf53 4dbd d686 d7bd 5278 603e 9681 41bd
00000330: b5dc 90bd ee8b e1bd 410e f3bd 6eea 5ebc
00000340: 6a25 f03d cf03 7bbe 9faf 663d 421d 023c
00000350: 8ae6 eb3d b24d 2cbe 30a8 843e 555a 81be
00000360: 8e2c 1ebe 67a8 53be 44c2 3dbe a86e 26bd
00000370: 05dc bc3d 655b 91be 7e26 90bd 6e14 51be
00000380: d809 d73d 8906 803c 13da f13d 2cad 5abe
00000390: 5397 85be 31c2 813e feb2 82be 9998 053e
000003a0: b3e0 61be 3392 db3d 8d53 433d 4e6d 213d
000003b0: 68d6 19be 7a2b 9dbd 6041 04bd a13c d43c
000003c0: 6f4c e53c 47e5 1dbd b0c9 543e 30fa dabd
000003d0: 9052 2c3b 75b2 87be 598b 073e db22 bdba
000003e0: 5240 6cbe fefe 54be 9379 05be 85df 83bd
000003f0: 9a93 6e3e 4c0a 29be d35c 213d 93ae 76bd

onnx::MatMul_119 f4 [41, 32]
-0.096737444 0.01863745 -0.103103206 -0.047097277 -0.063852295 -0.041885413 -0.2243756 -0.08665503
0.059260175 0.087243296 -0.099528424 0.066203326 -0.12502559 0.07358165 0.09207013 0.02852977
-0.12203177 0.03023305 0.04840365 -0.1120281 -0.1472234 0.029599324 0.00087646843 -0.052685812
-0.2351532 0.13899724 -0.17934735 -0.101815216 -0.08184256 -0.10410065 -0.1934188 -0.16413859
-0.20618358 0.011059357 0.04267538 0.08008846 -0.17656565 0.01565865 0.012818986 -0.07852499
0.000545734 -0.10233639 -0.25477028 0.00050822407 -0.027707033 -0.12297333 -0.107668504 -0.107235625
0.041733682 0.06842176 0.048398133 -0.1152306 -0.035350304 -0.21990037 -0.11908392 -0.064659625
-0.21036075 -0.16004784 -0.13537093 -0.006693905 -0.08539764 -0.25019866 -0.0868661 0.05505347
0.21497837 0.07269057 0.10280123 -0.040892575 0.20400314 -0.021620737 -0.048590787 0.22681758
0.24690302 -0.10371438 0.16580893 0.2490211 0.09152245 0.05748659 -0.10748855 0.048414208
-0.16547051 0.17833038 -0.056376763 0.13234174 0.09464362 0.00951564 -0.036221646 -0.019422296
-0.12944433 0.043722123 -0.04088094 -0.1443936 0.16337429 0.22751991 -0.033189386 0.026733361
-0.000639321 -0.10440881 -0.16052124 0.09467277 -0.03277083 -0.07221053 -0.01710364 -0.15752406
-0.24031214 0.07250106 0.01796753 -0.04389894 -0.25753385 -0.08273835 0.092142075 0.07070728
-0.061201382 -0.020081162 0.059513845 0.12684841 -0.08952348 -0.19277816 0.051213548 0.025350437
-0.13981599 -0.12676236 -0.11252354 0.010961043 -0.025202354 -0.012808841 0.13293204 -0.018557021
-0.21310648 0.08347125 -0.10002242 0.1263778 0.016286585 0.08913439 -0.010591658 -0.046862055
-0.20385478 -0.07864821 -0.22818196 -0.10726518 -0.011422672 -0.010562246 -0.051290195 0.08365128
-0.06575308 -0.15592863 -0.053686097 0.065208554 -0.07042824 0.01887011 0.077795245 0.039353736
-0.076285176 -0.09361224 0.008843752 -0.045538206 -0.16100314 -0.15908965 -0.11088824 0.02501174
0.26017526 0.073488206 0.058592316 0.03371395 0.18191694 -0.114776656 0.00017505944 0.12870766
0.16678546 -0.17799588 0.24942477 0.18319532 0.21851246 -0.027328575 -0.08727084 0.030062445
-0.054748498 0.11217615 0.042542078 -0.05343505 0.043936245 0.20569384 0.069456205 0.1570714
0.0058590905 0.11051259 0.10519327 0.047567163 -0.09047486 0.18457095 -0.033861324 0.110434905
-0.25926235 -0.15333855 -0.17990138 0.08213241 -0.03873942 -0.023648437 0.08111232 -0.16589598
-0.045913626 0.053310283 -0.12981518 -0.044019848 -0.1538848 0.10266903 -0.07497407 -0.07489411
-0.1525168 0.045993738 -0.14057058 -0.1376462 -0.10382565 -0.0822747 0.08657994 0.022324933
-0.014071095 -0.024951681 0.030931296 -0.10309485 0.015068699 -0.053769525 0.016820151 -0.18743037
-0.23895808 0.0039249747 0.040228304 -0.14247076 0.04049067 0.039323892 -0.19461466 -0.115302704
0.08887841 0.16486116 -0.1302482 0.031044656 0.01251123 0.044080526 -0.11595969 0.012703743
0.011772482 0.05202817 -0.13106881 -0.24995673 -0.12607387 -0.18965992 -0.11982394 -0.06513158
-0.054414768 0.13274968 -0.16541755 -0.058368 -0.16533355 -0.12292802 -0.08494904 -0.07288763
00000000: 481e c6bd 91ad 983c c627 d3bd 13e9 40bd
00000010: fec4 82bd 0a90 2bbd b8c2 65be 3178 b1bd
00000020: ccba 723d 9dac b23d 8fd5 cbbd 9c95 873d
00000030: b506 00be fab1 963d 448f bc3d 44b7 e93c
00000040: cbeb f9bd 4dab f73c e842 463d fd6e e5bd
00000050: bbc1 16be 487a f23c cdc2 653a 14cd 57bd
00000060: 00cc 70be 4b55 0e3e d5a6 37be 7f84 d0bd
00000070: 129d a7bd b932 d5bd 940f 46be f213 28be
00000080: ca21 53be 4e32 353c 61cc 2e3d 6b05 a43d
00000090: a0cd 34be 9246 803c b906 523c b6d1 a0bd
000000a0: 970f 0f3a be95 d1bd 4071 82be 573a 053a
000000b0: dcf9 e2bc 71d9 fbbd 4e81 dcbd 5a9e dbbd
000000c0: f0f0 2a3d b520 8c3d 1f3d 463d 05fe ebbd
000000d0: 7bcb 10bd 902d 61be 45e2 f3bd 446c 84bd
000000e0: cf68 57be 95e3 23be ad9e 0abe 8c58 dbbb
000000f0: f5e4 aebd 0a1a 80be dbe6 b1bd bf7f 613d
00000100: 4a23 5c3e cbde 943d 7489 d23d f97e 27bd
00000110: 33e6 503e f91d b1bc 2207 47bd de42 683e
00000120: 25d4 7c3e 3468 d4bd d1c9 293e 63ff 7e3e
00000130: 1f70 bb3d 0f77 6b3d f522 dcbd fa4d 463d
00000140: 1a71 29be 3d9c 363e 52eb 66bd 9884 073e
00000150: 84d4 c13d 7de7 1b3c 265d 14bd 821b 9fbc
00000160: 0e8d 04be f815 333d c672 27bd eadb 13be
00000170: 974b 273e fbfa 683e 98f1 07bd ecff da3c
00000180: 1b98 27ba 49d4 d5bd ae5f 24be cce3 c13d
00000190: b53a 06bd 1de3 93bd ef1c 8cbc fd4d 21be
000001a0: 6314 76be 707b 943d a430 933c 60cf 33bd
000001b0: 7adb 83be b972 a9bd fcb4 bc3d face 903d
000001c0: 4dae 7abd 4081 a4bc cac4 733d 8de4 013e
000001d0: 1658 b7bd a367 45be 4cc5 513d b8ab cf3c
000001e0: ec2b 0fbe fecd 01be be72 e6bd f295 333c
000001f0: 2b75 cebc 2cdc 51bc 561f 083e e504 98bc
00000200: 9638 5abe faf2 aa3d 8ed8 ccbd 2f69 013e
00000210: 726b 853c 178c b63d a288 2dbc 6df2 3fbd
00000220: 4fbf 50be 5012 a1bd 88a8 69be d9ad dbbd
00000230: 2926 3bbc 450d 2dbc ab15 52bd 5d51 ab3d
00000240: 8da9 86bd c1ab 1fbe f4e5 5bbd 108c 853d
00000250: ae3c 90bd 7d95 9a3c 1d53 9f3d 6231 213d
00000260: 673b 9cbd c6b7 bfbd 62e5 103c 4586 3abd
00000270: 02de 24be 66e8 22be 6019 e3bd 6ce5 cc3c
00000280: b135 853e fc80 963d 7ffe 6f3d a417 0a3d
00000290: 6f48 3a3e 0610 ebbd 2990 3739 f1cb 033e
000002a0: cfc9 2a3e 8d44 36be 3569 7f3e 8e97 3b3e
000002b0: bbc1 5f3e 2de0 dfbc 0ebb b2bd 8445 f63c
000002c0: f63f 60bd 9cbc e53d 9a40 2e3d b6de 5abd
000002d0: 7ef6 333d 68a1 523e 0e3f 8e3d 53d7 203e
000002e0: 9dfd bf3b 6d54 e23d 926f d73d c9d5 423d
000002f0: e24a b9bd 2b00 3d3e 2cb2 0abd b22b e23d
00000300: 09be 84be c804 1dbe 1138 38be 0935 a83d
00000310: 3aad 1ebd 5eba c1bc 371e a63d a3e0 29be
00000320: ed0f 3cbd e25b 5a3d 45ee 04be 284e 34bd
00000330: fa93 1dbe 2444 d23d 018c 99bd 1562 99bd
00000340: 5d2d 1cbe ee63 3c3d bcf1 0fbe 20f3 0cbe
00000350: 8ba2 d4bd a37f a8bd d350 b13d c7e2 b63c
00000360: 738a 66bc 7867 ccbc a163 fd3c 6523 d3bd
00000370: b4e2 763c 6f3d 5cbd 6aca 893c bfed 3fbe
00000380: 6db1 74be 139d 803b 6fc6 243d dbe3 11be
00000390: 8bd9 253d 1712 213d 1149 47be d323 ecbd
000003a0: e205 b63d 5dd1 283e c95f 05be 5d51 fe3c
000003b0: e7fb 4c3c c88d 343d 467c edbd 5c23 503c
000003c0: 5ee1 403c 7e1b 553d e736 06be a8f4 7fbe
000003d0: 8219 01be 3636 42be 4166 f5bd b563 85bd
000003e0: 05e2 5ebd 88ef 073e 3863 29be 4913 6fbd
000003f0: 334d 29be b0c1 fbbd c3f9 adbd 1c46 95bd

onnx::MatMul_120 f4 [32, 32]
0.10336107 0.05613222 -0.08845233 -0.16809283 -0.15479183 0.106907286 0.09140142 0.022482462
0.14030823 -0.059863526 0.017242715 0.025993258 -0.13455816 -0.13971305 0.25873333 -0.01418698
0.22051273 0.20833123 -0.0075559528 -0.057165943 0.00094187894 -0.18475035 -0.01971769 0.194799
0.23344792 0.18065298 0.22097474 0.073511824 -0.13401255 -0.14422034 -0.035339255 -0.063036375
0.27827546 -0.26486003 -0.2992728 0.02869703 0.1438814 -0.29918435 0.32163078 -0.29120907
0.04137439 0.3737902 0.2747692 0.16138317 -0.12255391 -0.20446 0.27373016 0.29934424
-0.14013992 -0.36045012 -0.079162225 -0.061302982 -0.28112242 -0.0042713457 0.08554907 -0.11082237
0.33178443 -0.16164906 -0.18461438 -0.19007482 -0.068622604 -0.22305089 0.22636922 -0.16649647
0.09669993 0.05157574 0.16339207 -0.015815658 0.04338672 0.30775747 -0.037113957 0.079423405
-0.066267945 -0.060738664 -0.20337549 0.074089594 0.20549141 0.32434174 -0.19619197 -0.2506457
0.14210391 0.34095722 0.108502224 0.15997617 0.31048325 -0.006032635 0.07070017 0.12473943
-0.19521458 0.27856392 0.12553988 0.21625759 0.11980372 0.284054 -0.010381671 0.38078552
0.46635595 0.13668467 -0.03888659 0.041915774 -0.15036345 -0.04059658 0.24212132 0.0462245
0.22206211 0.15790606 -0.13827468 0.49149463 0.39966148 0.26123586 -0.17527743 -0.12775227
-0.33825448 -0.45211574 0.025439627 -0.4311634 -0.15559103 -0.11619317 -0.3055701 -0.48554257
0.38866022 -0.43627894 -0.42655066 0.32485902 -0.093299046 0.14835282 0.3217604 -0.027751917
-0.015435535 -0.12125096 -0.25278357 0.018822689 -0.029392114 -0.22189178 -0.13314834 -0.27987733
0.010990754 0.2077163 0.17903514 0.017605387 -0.27423224 -0.08603194 0.19125956 0.14758976
-0.078802824 -0.23215047 -0.041495174 -0.1782922 -0.2610186 -0.17400621 -0.044898245 0.20280334
0.32211277 0.075071976 -0.14340265 -0.25374475 -0.039805606 -0.07435475 0.09446449 -0.1458701
0.23580654 0.124079324 0.20112555 -0.10501406 -0.0993411 -0.008915842 0.42920554 0.017733091
0.080622524 0.049699116 -0.18529437 0.21780482 0.24912037 0.23072225 -0.20592315 -0.09136174
-0.20251743 -0.17710258 0.07947808 -0.28169677 -0.2329822 -0.05930264 -0.33035883 -0.42721522
0.36265233 -0.31486225 -0.31194595 0.16370712 0.04299393 0.03371773 0.17438202 0.10025648
0.1165287 0.2971112 0.12176532 0.10335353 -0.036226172 0.3830822 0.24646181 0.2279505
-0.057590146 -0.20868653 -0.029950628 0.053783108 0.29554117 0.3788453 -0.08765266 -0.29550046
0.008305024 0.20382957 0.37844092 0.0765955 0.2656558 0.091086544 -0.27377716 0.044531178
-0.015631242 0.08838102 0.26513672 0.09466514 -0.009159803 0.26653087 -0.25411996 0.21809043
-0.13070714 -0.13287105 -0.27723426 0.097692795 -0.031136418 -0.13659681 0.016326632 -0.046574935
0.2738841 0.2741715 0.26657957 0.29731497 -0.23479992 -0.32938403 0.108824976 0.0890062
-0.17211775 -0.33603126 -0.14757442 -0.012469777 -0.2102814 0.042180013 0.31129736 0.21868467
0.2146321 0.11203814 -0.091056906 0.030495163 -0.20534304 -0.12054578 0.124801844 -0.19040996
00000000: f8ae d33d e6ea 653d 7f26 b5bd 8720 2cbe
00000010: c081 1ebe 35f2 da3d ab30 bb3d 242d b83c
00000020: f6ac 0f3e 7533 75bd 9840 8d3c d0ef d43c
00000030: 9dc9 09be f010 0fbe b278 843e 8270 68bc
00000040: 17ce 613e c854 553e ed97 f7bb d626 6abd
00000050: 6de8 763a 322f 3dbe fe86 a1bc 6479 473e
00000060: f90c 6f3e 18fd 383e 3447 623e 5e8d 963d
00000070: 963a 09be 7fae 13be e5bf 10bd 3719 81bd
00000080: 1f7a 8e3e bc9b 87be 493a 99be 0916 eb3c
00000090: a555 133e b12e 99be caac a43e 5b19 95be
000000a0: 3178 293d 6e61 bf3e 8cae 8c3e a141 253e
000000b0: 8bfd fabd f65d 51be 5c26 8c3e a643 993e
000000c0: d780 0fbe eb8c b8be ce1f a2bd d618 7bbd
000000d0: 47ef 8fbe a5f6 8bbb 5a34 af3d d7f6 e2bd
000000e0: a6df a93e 5587 25be 8d0b 3dbe f9a2 42be
000000f0: 028a 8cbd 7467 64be 55cd 673e 0d7e 2abe
00000100: 9d0a c63d 1541 533d 4050 273e d78f 81bc
00000110: 46b6 313d 6392 9d3e ce04 18bd bda8 a23d
00000120: 7db7 87bd 1bc9 78bd aa41 50be 49bc 973d
00000130: 576c 523e 1f10 a63e 8ce6 48be a254 80be
00000140: b083 113e f291 ae3e 6a36 de3d cbd0 233e
00000150: a9f7 9e3e 69ad c5bb 40cb 903d 6377 ff3d
00000160: 55e6 47be ee9f 8e3e 878d 003e a172 5d3e
00000170: a75b f53d 876f 913e e217 2abc 52f6 c23e
00000180: 35c6 ee3e 11f7 0b3e 8c47 1fbd e0af 2b3d
00000190: e0f8 19be 9948 26bd a7ee 773e e755 3d3d
000001a0: 4064 633e 20b2 213e e197 0dbe 2fa5 fb3e
000001b0: 6ea0 cc3e b5c0 853e ed7b 33be 7ed1 02be
000001c0: b12f adbe b77b e7be c466 d03c 73c1 dcbe
000001d0: 4153 1fbe aff6 edbd af73 9cbe 0999 f8be
000001e0: 79fe c63e f45f dfbe d964 dabe ec53 a63e
000001f0: 9213 bfbd cde9 173e c7bd a43e fd57 e3bc
00000200: 54e5 7cbc 6c52 f8bd d96c 81be 0a32 9a3c
00000210: bbc7 f0bc 9937 63be 0a58 08be 154c 8fbe
00000220: 9012 343c 95b3 543e fd54 373e 2c39 903c
00000230: 2b68 8cbe 8431 b0bd 8cd9 433e c521 173e
00000240: 6063 a1bd dab8 6dbe d8f6 29bd 3b92 36be
00000250: 3ba4 85be af2e 32be 39e7 37bd aeab 4f3e
00000260: f7eb a43e 56bf 993d 25d8 12be d5ea 81be
00000270: 340b 23bd 4e47 98bd 9976 c13d f95e 15be
00000280: 4577 713e 4d1d fe3d dbf3 4d3e 9d11 d7bd
00000290: 5973 cbbd c013 12bc d4c0 db3e fd44 913c
000002a0: 6c1d a53d 4d91 4b3d cfbd 3dbe 3a08 5f3e
000002b0: 6919 7f3e 7442 6c3e 85dd 52be dd1b bbbd
000002c0: bb60 4fbe 615a 35be 67c5 a23d 8f3a 90be
000002d0: e392 6ebe 53e7 72bd cb24 a9be f4bb dabe
000002e0: 91ad b93e a035 a1be 61b7 9fbe d7a2 273e
000002f0: 671a 303d 9a1b 0a3d 3391 323e 4553 cd3d
00000300: 99a6 ee3d f61e 983e 1960 f93d 04ab d33d
00000310: e561 14bd 5a23 c43e 7c60 7c3e db6b 693e
00000320: a5e3 6bbd ecb1 55be 055b f5bc ad4b 5c3d
00000330: 2c51 973e 03f8 c13e 3d83 b3bd d64b 97be
00000340: cc11 083c b3b8 503e 02c3 c13e 1ade 9c3d
00000350: 0904 883e 958b ba3d 852c 8cbe 5366 363d
00000360: 170d 80bc 1c01 b53d 00c0 873e ccdf c13d
00000370: 0013 16bc bc76 883e 031c 82be 1953 5f3e
00000380: 18d8 05be 590f 08be a6f1 8dbe 2913 c83d
00000390: cd11 ffbc 09e0 0bbe 6ebf 853c 5cc5 3ebd
000003a0: 893a 8c3e 3560 8c3e 1e7d 883e ab39 983e
000003b0: 646f 70be 06a5 a8be a1df de3d e248 b63d
000003c0: a33f 30be 4a0c acbe c01d 17be 094e 4cbc
000003d0: 0254 57be f3c4 2c3d 5e62 9f3e e0ee 5f3e
000003e0: 84c8 5b3e 4174 e53d 0b7c babd fed0 f93c
000003f0: 7245 52be b5e0 f6bd 1c98 ff3d d4fa 42be

onnx::MatMul_121 f4 [32, 2]
-0.43041965 0.35510156 -0.40949342 -0.21502326 -0.37360317 -0.48319697 -0.11852406 -0.07083799
0.039026305 0.03673656 -0.20171916 -0.3193127 -0.44510564 0.29117593 -0.3693081 -0.34065902
0.10292285 0.3562583 -0.00324444 0.4697114 0.46800172 0.29587102 -0.28813013 0.3501707
-0.45914793 -0.025392327 -0.5199142 -0.23798881 0.41120923 0.3011223 0.45045632 0.28721234
0.30987057 -0.4138968 0.007473082 -0.4878667 -0.4125408 -0.24007583 0.2511198 -0.49503064
-0.14368403 -0.39552054 0.04640724 0.04955633 0.50871485 -0.17503406 0.401723 -0.23981506
-0.054587886 0.50949895 0.4911076 -0.5013112 0.2769457 -0.50674295 -0.55526495 0.055415902
-0.058232956 -0.12386476 -0.38885072 -0.37566432 0.1026142 0.5242225 -0.44723472 -0.4183111
00000000: f75f dcbe dfcf b53e 1fa9 d1be 0f2f 5cbe
00000010: ea48 bfbe 9865 f7be bebc f2bd 8213 91bd
00000020: 0cda 1f3d 1379 163d 788f 4ebe f47c a3be
00000030: e3e4 e3be 0315 953e f415 bdbe dc6a aebe
00000040: 37c9 d23d 7d67 b63e aca0 54bb 037e f03e
00000050: ec9d ef3e 687c 973e cb85 93be 9349 b33e
00000060: 7015 ebbe 9203 d0bc 1919 05bf 57b3 73be
00000070: 048a d23e b42c 9a3e 36a2 e63e 7f0d 933e
00000080: 5ba7 9e3e 48ea d3be c1e0 f43b aac9 f9be
00000090: 8c38 d3be 70d6 75be c692 803e a874 fdbe
000000a0: e821 13be ab81 cabe 8515 3e3d 94fb 4a3d
000000b0: 233b 023f 213c 33be a3ae cd3e 1492 75be
000000c0: 8c97 5fbd 866e 023f 7572 fb3e ee55 00bf
000000d0: d4cb 8d3e e8b9 01bf d825 0ebf c9fb 623d
000000e0: ae85 6ebd cfac fdbd 7117 c7be 1357 c0be
000000f0: 6527 d23d 7233 063f f3fb e4be df2c d6be
